p1_navigation/0checkpoint.pth (torch_old, 45326 bytes, 8 tensors)

fcs.0.weight f4 [64, 37]
000000 44 29 64 3c e8 65 67 bc ee bb 22 be b3 a1 b3 bd
       0.013925854 -0.014123417 -0.15892002 -0.08771076
000010 27 d2 b9 be 26 50 59 3e 07 eb 6d be 14 de 51 bc
       -0.36293146 0.2122198 -0.23234187 -0.012809295
000020 6b c6 b4 bc bd f2 b1 be a4 eb 81 be b6 ad 10 3e
       -0.02206727 -0.34755507 -0.25375092 0.14128765
000030 69 e6 d6 bd 9b 96 17 be 15 db 13 be 90 36 21 3e
       -0.10493166 -0.14803545 -0.14439042 0.1574347
000040 db 56 ba bd 8c 80 04 3e 7c 2f 56 be 37 70 3d be
       -0.090985976 0.12939662 -0.20916551 -0.18499838
000050 3d 64 8b 3d 44 1d d4 3c 1d e9 43 3d be 06 16 3e
       0.06806228 0.025892861 0.047829736 0.1465101
000060 ff f7 c4 bd 92 3a 1e 3d c1 79 1b 3d a7 ae e2 bd
       -0.09617614 0.038630076 0.03795791 -0.110684685
000070 0e ec 26 be 90 a7 6d be c3 08 ba 3d a4 26 4b 3d
       -0.16300985 -0.23208451 0.090837024 0.049597397
000080 33 7b 31 be ec 25 85 be d5 31 bb be de 53 28 bd
       -0.17332153 -0.26005495 -0.36561456 -0.041095607
000090 62 cb b0 bc e5 02 ff 3e 99 d1 ea be 2a 14 85 be
       -0.021581355 0.49806896 -0.45863035 -0.25991946
0000a0 88 b0 29 be ed fc fb bf e4 cd fc bd 85 68 8d bd
       -0.16571248 -1.9686562 -0.12343958 -0.06904701
0000b0 d3 20 1e bd d9 c1 bb bc a7 fb 54 3d 5a d4 13 3d
       -0.038605522 -0.022919582 0.051997807 0.036091186
0000c0 92 93 49 3d 04 e5 36 3d c7 e0 63 3d 49 44 a2 3c
       0.049213 0.044652 0.055634286 0.019807952
0000d0 20 43 b0 3d 0e be da 3d 70 61 eb 3d 76 ce bb 3c
       0.08606553 0.10680781 0.11493194 0.022925597
0000e0 11 c2 2a be 54 3f 4d bd ba 11 87 bd 10 cf 86 bd
       -0.16675593 -0.050109223 -0.06595178 -0.06582463
0000f0 c3 06 89 bd 41 0e 15 3d 09 af 15 bb 84 0d d0 3d
       -0.06690743 0.036390547 -0.0022839925 0.10158828
000100 84 86 9c 3d e5 8a 8e 3c e4 c0 8d bc b1 3e dc 3d
       0.07642844 0.017400214 -0.017303891 0.10754145
000110 5d d4 ce 3d 14 8e f0 3d de b0 6a 3d c0 8e ca bb
       0.10099099 0.11745849 0.05729758 -0.006181568
000120 fe 66 ad 3c 00 cf 06 3b 18 76 41 3e e1 a3 99 3c
       0.021167275 0.002057016 0.18892705 0.018754901
000130 cb c1 12 3e 50 27 72 bd c2 59 5a 3d 7c 0a 82 be
       0.14331739 -0.059119523 0.053308256 -0.25398624
000140 62 b5 75 ba 9d 32 1f 3e 1c df 14 3e c3 9d 4a 3e
       -0.00093730364 0.15546651 0.14538234 0.19786744
000150 44 68 42 3d d9 2e 8c bd d5 3b 95 3c 58 06 08 3e
       0.047462717 -0.06844873 0.018217007 0.1328367
000160 0c 8f 51 3e 71 c5 b7 bd 53 a5 0c 3d d7 a0 6d 3d
       0.20464724 -0.08973206 0.034337353 0.058014717
000170 a3 81 ad 3e 5d d6 84 3e 1a b2 8a be 79 9a a7 bc
       0.33887967 0.25944796 -0.27089006 -0.0204594
000180 ce 51 fc 3d 62 75 67 3d 63 72 97 3c d4 b0 02 be
       0.123202905 0.05650843 0.018487161 -0.12762767
000190 1e b2 59 3d c3 41 d9 3d 01 6b 31 3e 41 61 e8 3d
       0.05314838 0.10608246 0.17325975 0.11346675
0001a0 29 bc b3 be 77 0c 09 3d 1f b0 28 bd 5f be 58 3e
       -0.35104492 0.033459153 -0.041183587 0.21166371
0001b0 fb f4 3a 3e f2 eb 57 3d 5b 2b d6 bc 15 b4 b8 3d
       0.18257515 0.05271525 -0.02614372 0.09018723
0001c0 93 cf 97 3d 40 b5 01 3e 98 e5 a5 3d 5c c9 92 bc
       0.074126385 0.12666798 0.08100432 -0.017918281
0001d0 7e cb 77 3d ee 11 07 3e fe 24 81 bb ac 7a 65 3d
       0.0604968 0.13190433 -0.0039411774 0.056025192
0001e0 b6 fb 13 3b f7 33 3a 3d 9d 7d 40 bd 9c 0c c7 3c
       0.0022580451 0.045459714 -0.046994794 0.024298005
0001f0 5f 79 cc 3c 30 fb de b9 ab 41 1b bd c6 80 59 bc
       0.024960218 -0.0004253029 -0.037904423 -0.013275331
000200 4c 1a 59 bd c9 eb 0d bc 86 af 13 3d 83 b1 6d 3d
       -0.053003594 -0.008662173 0.036056064 0.058030616
000210 86 52 cd 3c 47 ba 05 3d 47 c2 b9 3d f1 8f c8 3c
       0.025063764 0.03264835 0.090702586 0.0244827
000220 7e e7 a4 3d 6f 28 43 3d 6b 51 84 3d 6b 37 8d 3d
       0.08051966 0.047645982 0.06460842 0.06895336
000230 7a 43 f1 3d a3 6a ad 3e fd 2a 2f be ce 37 df be
       0.11780448 0.3387042 -0.17106242 -0.43597263
000240 50 4e b1 be 0a 21 f6 bf f5 cc 16 3d f5 bc b8 b8
       -0.3463006 -1.9228833 0.036816556 -8.809e-05
000250 bb ed c5 bc 64 90 2d bd 09 8b 40 be db 60 16 be
       -0.02416121 -0.04237403 -0.18803038 -0.14685385
000260 20 31 f3 bc 9d a7 dc 3b d8 f5 c5 3e 3b bf d1 bc
       -0.02968651 0.0067338482 0.38664126 -0.025603881
000270 26 e2 b0 3d 66 38 06 bf 6f bd a5 bd dc 40 e6 3c
       0.086368844 -0.5242981 -0.08092772 0.0281071
000280 e5 e1 19 bd 37 5a 8c bc 7b 65 80 bc d5 0f 0e be
       -0.037568945 -0.017132862 -0.01567339 -0.13873227
000290 54 68 03 bc de c7 b2 bc 92 c2 1b 3e a4 fd ae 3d
       -0.008020479 -0.02182382 0.15210941 0.08544472
0002a0 79 e8 86 bd 51 99 ab bd 55 df 15 3e 61 5e 81 bd
       -0.065873094 -0.08378852 0.14635976 -0.063168295
0002b0 d1 e0 c2 3d 50 08 3b 3e e3 96 d8 be 6f 05 30 bd
       0.095155366 0.1826489 -0.42302617 -0.042973932
0002c0 65 5a 4f bd a0 23 b5 bf 4b 9c ba bd 04 53 64 3c
       -0.050623316 -1.4151497 -0.09111842 0.013935808
0002d0 09 2e 14 3e 32 ec 78 3e 98 64 90 3e 06 24 16 3d
       0.14470686 0.24308851 0.28201747 0.03665545
0002e0 16 6e fa bb 9f 48 f4 3d 55 9e 37 bd 58 08 19 bd
       -0.007642518 0.11927914 -0.04482873 -0.037361473
0002f0 5f 7d 2f be 77 e9 09 be e4 be 7b 3e 48 a6 a7 3d
       -0.17137669 -0.13467966 0.24584538 0.081860125
000300 b0 4f 44 bd 42 7a 8b be 33 b4 2e bf c1 b8 90 bd
       -0.04792756 -0.27241713 -0.6824371 -0.07066489
000310 33 b0 f7 bc 48 36 57 3d 52 68 ba bd 19 5f 29 3e
       -0.030235386 0.052542 -0.09101929 0.16540183
000320 35 84 d5 3d 74 74 ce bc 6c 61 c6 bd 42 5b 5d be
       0.10425607 -0.025202014 -0.096865505 -0.21616843
000330 a6 6b 21 be d2 21 25 3e 64 01 d6 bb 71 20 17 3e
       -0.15763721 0.16126183 -0.0065309275 0.14758469
000340 3d 67 33 3d 5e fd 44 3d 00 14 80 3d 38 c4 91 bd
       0.043799628 0.048093192 0.06253815 -0.07117504
000350 c8 12 dc bc 16 b1 a2 3c 1e 60 89 3e cb fa 15 3d
       -0.026864424 0.019859832 0.26831144 0.036616128
000360 d4 53 08 3e 5d 93 f8 bd 20 b4 87 bd a4 21 e1 3c
       0.13313228 -0.12137482 -0.06626153 0.027481861
000370 1c 67 e2 3b 99 29 4c 3d aa c3 80 3e 03 4a 59 3d
       0.0069092643 0.049844358 0.2514928 0.0530491
000380 2a 02 e4 be 0a 8c ed bd 44 32 73 bf 76 7b 88 3d
       -0.445329 -0.11598976 -0.94998574 0.06664173
000390 dc a0 36 ba 1c ec ce 3d e3 fd b3 be e7 81 fd 3d
       -0.0006966719 0.10103628 -0.35154638 0.123782925
0003a0 f0 5b 13 3e 5d 2c 85 3d 27 76 93 3d 8d d0 51 3d
       0.1439054 0.06502602 0.0720027 0.05122428
0003b0 0b 34 16 3e 0e df 91 bc d2 42 72 be 61 1a 90 bc
       0.1466829 -0.017806556 -0.23658302 -0.017590703
0003c0 80 02 dc 3d ee 8c 44 3e 88 b5 84 be 99 b1 22 bc
       0.10742664 0.19194385 -0.25919747 -0.009930038
0003d0 b9 fa 7b 3e c4 a7 b8 bd 62 aa 30 3e f7 e1 ef bd
       0.24607362 -0.09016374 0.17252496 -0.11713021
0003e0 2a b7 d4 bd eb 7f b6 3c e3 9d 6b 3d 24 82 37 3e
       -0.10386498 0.022277793 0.05752362 0.17920738
0003f0 cc ca df 3d 70 45 44 bd 55 ef fa 3c df f2 bf 3c
       0.10927352 -0.047917783 0.0306317 0.02343124

fcs.0.bias f4 [64]
000000 c2 4e 06 3e 77 cd 37 3d d0 11 30 be 8b 73 5c 3d
       0.13115981 0.04487368 -0.17194295 0.053821128
000010 41 64 42 3e 19 d8 76 3c 85 25 02 bc 2f 3d 81 3d
       0.18983556 0.01506617 -0.007943516 0.06310498
000020 b8 46 a8 3d aa 6d 11 be f3 c6 cf 3d 5d 97 06 3e
       0.082166135 -0.1420199 0.101453684 0.13143678
000030 a1 a7 70 3d 9a 29 1b 3e 30 bd bf bc 04 5d b5 bd
       0.058753613 0.15152588 -0.023405641 -0.08855632
000040 56 cb ee 3c d1 15 23 bd ce b9 1c 3c e4 23 03 be
       0.029149693 -0.039815728 0.009565784 -0.1280666
000050 c2 5e e2 bd 7f a3 d5 3c c4 76 a0 3d 65 9c 79 bd
       -0.1105323 0.026078938 0.07835153 -0.060940165
000060 6a 6b c9 bd 4d 6c 34 3e f1 07 0c bb fa 5c af bd
       -0.09834941 0.17619438 -0.0021367038 -0.08562656
000070 7b 7f 1e 3e c8 b8 85 3d ef ee e7 bc d6 3b 33 be
       0.15478317 0.06529385 -0.028312175 -0.17503294
000080 ad 86 41 3e 81 1c a0 bb cb 0a d4 bd 91 e9 7f 3e
       0.18899031 -0.0048862104 -0.10353621 0.24991442
000090 96 9a 84 bd c7 74 a5 3d 49 ca 65 bd 36 44 da bd
       -0.064747974 0.08078914 -0.056101117 -0.106575415
0000a0 3e 8a 2e bc ae 14 fe 3c 6c 52 5b 3c 02 15 07 3e
       -0.010653077 0.03101572 0.01338635 0.13191608
0000b0 e0 27 21 3c 59 51 98 bd 14 e3 6b bb d7 9f 17 be
       0.009836167 -0.07437391 -0.0035993503 -0.14807068
0000c0 7b e0 0a be 67 c9 c3 3d cf 4f 45 be 42 89 09 3e
       -0.13562195 0.09559899 -0.19268726 0.13431266
0000d0 f9 fc e1 3c fb f8 cb bd 89 f6 2e be d7 3f 93 3b
       0.027586447 -0.09959599 -0.17086233 0.0044936943
0000e0 67 5f ee 3d b8 57 b0 bb ab 56 2a be a9 00 02 be
       0.1163929 -0.0053815506 -0.16634624 -0.12695564
0000f0 8d 02 ae 3c 5b 5d 8e 3d 2d ba bd 3d 93 ab 03 3c
       0.02124145 0.069514 0.09264026 0.008036512

fcs.1.weight f4 [64, 64]
000000 31 d5 23 be 55 4c 02 3e f0 df 63 3d 2f 8c cd 3d
       -0.15999295 0.12724431 0.055633485 0.100365035
000010 2c 06 98 3e bf 02 6b be 76 36 ac be bc a5 e4 bc
       0.2969221 -0.22950266 -0.336353 -0.02791106
000020 17 ba 21 bc 49 62 86 3d 7c 85 36 be 06 f4 9b bd
       -0.009871027 0.06561715 -0.17824358 -0.07614903
000030 96 d9 c5 bd fa 9c 77 3e 07 eb 98 3d a3 58 27 3c
       -0.09660642 0.24180976 0.07466703 0.010214004
000040 dc 0d af be a7 72 8c 3d 97 4d 80 bb ed f8 03 3e
       -0.3419026 0.06857806 -0.0039154994 0.12887926
000050 71 b7 01 be f8 04 1b be da a5 30 3e 3b 03 ba be
       -0.12667634 -0.15138614 0.17250767 -0.3633059
000060 6f 70 1e be 4c ff 15 be 4f 2c 14 be 48 bb 2a 3e
       -0.15472578 -0.1464817 -0.14470027 0.16673005
000070 d7 80 f5 3c 4d da 28 3e ae 5d 09 bc 10 bd a9 be
       0.029968662 0.16489525 -0.008384151 -0.33152056
000080 c2 a8 8c 3d d0 4d 69 be cb c0 8d bd 1d 76 24 be
       0.068681255 -0.2278359 -0.06921538 -0.16060682
000090 7d 47 d5 ba 10 5f eb 3d 9f 22 43 be cd e3 24 be
       -0.0016271916 0.11492741 -0.19056176 -0.16102524
0000a0 83 f4 0f be bc 2d bb 3d c3 23 e7 bd 7f 11 92 bc
       -0.14058118 0.091395825 -0.11286118 -0.017830608
0000b0 0b 98 34 3e 96 3a 2a be 86 51 13 bf 72 8c 8a 3d
       0.17636125 -0.16623911 -0.5754627 0.06765069
0000c0 a2 40 e8 be f8 b7 d4 bd 54 cc f0 bd a3 d4 89 3d
       -0.4536181 -0.10386652 -0.117577225 0.0673001
0000d0 9a e8 fc bd 16 37 24 3e 4d 8c 84 be db 76 c4 bd
       -0.12349053 0.16036639 -0.2588829 -0.095929824
0000e0 e0 b1 32 bd 74 e0 f1 bd a2 30 c0 be be 3a 83 be
       -0.043626666 -0.11810389 -0.37537104 -0.25630754
0000f0 f9 dd 88 3e 89 ef 80 3e bf bd 9c be 1b d9 61 ba
       0.26731852 0.2518275 -0.30613515 -0.000861542
000100 49 5d 94 3d b9 bf 9d bd db 70 b9 bb 68 6e 3d 3d
       0.07244355 -0.07702584 -0.0056592054 0.04624787
000110 af d5 10 3e 33 60 24 3e c0 06 53 bd de 4b a4 3a
       0.14144014 0.16052322 -0.05152011 0.0012534817
000120 29 69 1f be 27 c1 f9 bb f0 6b 1a bd bb 3b 9e 3d
       -0.15567459 -0.0076219025 -0.037700593 0.077262364
000130 c9 fa b7 bd 01 0b 87 3d 86 30 a9 bd bd 4e ed 3d
       -0.0898338 0.06593896 -0.08261208 0.11587284
000140 bd 0c cf 3d e3 e8 ed 3c 28 90 79 3c 01 92 8f be
       0.101098515 0.029041713 0.015232123 -0.2804108
000150 c9 84 44 3d 20 d8 33 be 28 07 4b 3e 55 83 48 be
       0.047978196 -0.17562914 0.19826949 -0.19581349
000160 a0 6f d9 3d ac 3f 1d bc cd cf 8f be 82 da 4b 3d
       0.10616994 -0.0095977 -0.28088227 0.049768932
000170 34 2c 0d 3e 55 eb 60 be ae 2e e1 3d 80 26 69 bd
       0.13786393 -0.21964772 0.109952316 -0.056921482
000180 f1 2c bf bd 62 97 86 bc 08 6e c0 bd 5d bb 2d bd
       -0.09334744 -0.016429607 -0.09395987 -0.04241501
000190 c6 09 bb bd a4 bc b2 3d 56 16 4d bd 7f 42 47 be
       -0.091327235 0.087273866 -0.05007013 -0.1945896
0001a0 6e 70 57 be 2c 66 0b 3d cd 9e ac 3d 04 87 91 3c
       -0.21038982 0.034032986 0.08428726 0.017764576
0001b0 45 25 83 3c 26 ba e7 bd 18 51 e3 bd e5 dd 17 be
       0.016008982 -0.11314802 -0.11099452 -0.1483074
0001c0 51 d1 7d bb 60 b2 0c bd 88 1a e7 3c 69 0c 90 3e
       -0.0038729499 -0.0343498 0.028210893 0.28134468
0001d0 ce 77 63 3c 20 0d d3 bd af 25 49 3d d3 4c c3 bd
       0.013883544 -0.10305238 0.049108204 -0.095361374
0001e0 ce 90 93 3c 17 1a 98 bd b0 53 f3 3d b7 62 19 3d
       0.018013384 -0.07426851 0.118811965 0.037447657
0001f0 09 20 27 be 6a d7 d7 bd 1c da b4 3d 8a 4a 02 be
       -0.16320814 -0.10539134 0.088306636 -0.12723747
000200 e5 d4 cf bd 4c 4b 9a be 58 3b db 3d d3 b5 f1 bd
       -0.10148028 -0.30135572 0.10704678 -0.11802258
000210 f7 1e c8 3e 45 e6 24 3d 4b db 6c bd d0 76 ec 3d
       0.39086124 0.040258665 -0.05782632 0.11546099
000220 b9 41 79 3c 96 10 3a 3b 2b 8e 9a bd 2b 26 17 be
       0.015213423 0.0028391234 -0.07546648 -0.14760654
000230 7c 3e dd 3d 2c da 46 3d 45 ff 30 3d b0 b4 5f 3d
       0.108029336 0.04854791 0.043212194 0.054615676
000240 cf 1c c6 bc 9e a3 cb 3c 78 89 16 3e 8d 61 4d be
       -0.024183659 0.024858292 0.14700878 -0.20056744
000250 5f 55 37 be 5c f2 db 3d b6 c1 0a 3e 3f 3d 46 3d
       -0.1790366 0.10739586 0.13550457 0.048398253
000260 57 0d a3 bc b6 91 8f 3c a7 9c 01 3d f9 e5 33 bd
       -0.019903822 0.017525535 0.031643536 -0.04392049
000270 77 0c 11 bc 8b 99 b4 3e 6c 10 c7 be a5 dc bd 3c
       -0.0088530695 0.35273394 -0.38879716 0.0231765
000280 25 da 39 be df f9 e6 bb df d6 cb bd 76 6b 16 3e
       -0.18149622 -0.00704883 -0.09953093 0.1468943
000290 58 c1 e2 3d db 75 3d 3d 63 33 d0 3c 54 74 07 be
       0.11072034 0.046254974 0.025415128 -0.1322797
0002a0 95 a8 4a 3e 24 b9 8c be 1f cb 86 bd 9b 05 da bd
       0.19790871 -0.27485 -0.06581711 -0.106456004
0002b0 9a 74 e1 3c 21 5d f0 bc 46 1f 07 bf 06 68 96 be
       0.02752142 -0.029341282 -0.52782094 -0.2937624
0002c0 fc 48 50 be 70 39 ce bd 4d a9 78 be fd 25 78 bd
       -0.20340341 -0.10069549 -0.24283333 -0.060583103
0002d0 3b 74 55 be 63 d9 d7 be 4e d1 fe 3c f2 17 cf bd
       -0.2084512 -0.4215804 0.031105664 -0.10111989
0002e0 82 eb ae bd 32 3e 4a be fb b0 ac 3d fe c9 a8 3e
       -0.08541013 -0.19750288 0.08432194 0.32966608
0002f0 aa 83 9e be 3f 21 9d bd 3f 12 de bd cc d8 2a be
       -0.30959827 -0.07672357 -0.10843324 -0.16684264
000300 0e 6a 29 bd 98 a9 32 3d ee 99 12 3d 7c 5b f2 3d
       -0.041360907 0.04361877 0.03579133 0.118338555
000310 5d 4a a2 bd a3 7b 6c 3c d5 6c 97 3c 82 b8 05 be
       -0.0792434 0.014433774 0.018484512 -0.13058665
000320 42 8b 89 bd 30 50 5f 3d f9 e9 8e ba ba e2 e0 3d
       -0.067160144 0.054519832 -0.001090347 0.10980745
000330 9c 53 98 bd 0e 30 b8 3d e9 36 79 be 35 48 bc 3d
       -0.07437822 0.08993541 -0.24337353 0.0919346
000340 13 d4 f7 bb 5f 09 5f be 01 63 14 3d 51 a3 c9 bb
       -0.007563123 -0.21780919 0.03622723 -0.006153502
000350 42 67 90 3c e2 0a 90 3c b8 5f 40 3e e7 65 5b 3e
       0.017627362 0.017583314 0.18786514 0.21425591
000360 a3 e4 72 3d 98 e6 ff 3d 50 a5 a6 3e 4c 28 0f 3d
       0.059300076 0.12495154 0.32547998 0.03495054
000370 9e 5d fd 3d 55 ce 26 be 00 68 d9 3d a7 cf 7e 3d
       0.12371372 -0.16289647 0.106155396 0.06220975
000380 3a 34 eb bd a1 38 a3 3d e2 fb e9 3d e2 e1 23 3e
       -0.11484571 0.079697855 0.11424996 0.16004136
000390 9d 44 a1 bd 12 d1 35 3e 3c 56 a0 3e 84 cb 23 3d
       -0.07874415 0.17755535 0.31315792 0.03998901
0003a0 51 f3 d5 bd a1 b5 11 3d e6 a3 ac 3d f4 1e 11 bd
       -0.104467995 0.035573605 0.08429699 -0.03542991
0003b0 70 3b 08 bd f9 40 de 3d c6 1d 9e 3c 29 32 45 3d
       -0.03325981 0.10852236 0.019301306 0.04814354
0003c0 96 39 ca 3d 4e 12 1b 3d e7 0f 07 3d f1 e0 53 3e
       0.09874265 0.037859254 0.03297415 0.20691277
0003d0 4c 6c 5b 3d 48 b4 88 be 0f 54 6a 3d 41 43 29 3e
       0.053570077 -0.26700044 0.05720907 0.16529562
0003e0 b1 7e db bd 0a c8 1e bd c3 36 0e 3d ba ac bd 3d
       -0.10717524 -0.03876499 0.034720194 0.092614606
0003f0 8c 66 0c bd f5 a3 f6 bb a4 1a c4 bd 08 73 bf bd
       -0.034277484 -0.0075268694 -0.09575394 -0.09348112

fcs.1.bias f4 [64]
000000 dd 6c 98 3c a7 f4 94 bd cf e0 d2 3d f6 d7 0e 3e
       0.018606598 -0.07273226 0.10296785 0.1394957
000010 eb a6 04 3e 61 dd 02 bd 51 42 a0 bd 03 16 90 3e
       0.12954299 -0.031949405 -0.07825149 0.28141794
000020 88 51 47 3d 2f ff 1d 3e 17 66 92 bd 9e 3c d0 3d
       0.04866174 0.15429376 -0.07148378 0.10167812
000030 44 33 57 3d 6b 39 57 bd 01 5d e0 bc e9 2f 91 3d
       0.052539125 -0.052544992 -0.027388098 0.07089216
000040 b7 6a c6 3b 3d 18 c5 bd 53 7e 15 bd 94 c9 46 3d
       0.006055202 -0.09623764 -0.036497425 0.048532084
000050 4f 44 e0 3d 88 9f d2 3d b1 e4 47 bd 0f e8 86 3c
       0.10950529 0.102843344 -0.04880208 0.016468076
000060 3c 1f 75 bd 4b 62 91 bd 10 76 9c 3d 6c 37 9c bd
       -0.05984424 -0.07098826 0.07639706 -0.076277584
000070 35 7b 53 bd fc c7 2d 3e f3 9a 15 3e 24 2f 2c be
       -0.05163117 0.16970819 0.1460989 -0.16814858
000080 38 80 30 3d d1 1e 7b 3d ae 8f 5d 3d 59 26 0a 3d
       0.04309103 0.061308686 0.0540921 0.033727977
000090 6a 8c 92 bd bf 1a bd 3d 18 5b 99 3c ed c9 41 bd
       -0.07155688 0.09233617 0.018720195 -0.047311712
0000a0 f3 70 03 be c3 86 a1 3d c1 80 4f 3c 39 1d 89 bd
       -0.12836055 0.07887032 0.012664975 -0.06695027
0000b0 c8 62 15 3e db f5 fa 3d 99 7d b7 bd c7 9f 33 bd
       0.14588463 0.122539245 -0.08959503 -0.043853547
0000c0 14 8a 56 3d 45 34 64 bd 4f 9a 04 be e1 5c 2f 3e
       0.052377775 -0.05571391 -0.12949489 0.17125274
0000d0 59 c8 17 bd 2e e8 1f be 9f 09 7e 3d f9 33 2d bd
       -0.0370563 -0.15615913 0.062020894 -0.042285893
0000e0 c3 7c 36 be 99 7b bb bd 5b 72 95 3c 41 44 2c bc
       -0.1782103 -0.09154434 0.018243005 -0.01051432
0000f0 9a a3 b4 3d c1 e0 ab 3d f7 95 eb 3d 30 59 c8 bd
       0.08820267 0.08392478 0.11503213 -0.09782636

fcs.2.weight f4 [64, 64]
000000 2a 1b 5c 3e 7c d5 af 3d 5d 5d 0d 3d 61 6c fa 3b
       0.21494737 0.08585641 0.034512866 0.0076423143
000010 f7 27 2b 3e b9 e5 4d be 72 8a 55 3e e2 41 36 bc
       0.16714464 -0.20107163 0.20853594 -0.011124106
000020 8e 6c 5b 3e db e0 56 3d bc 10 9e be 8d 23 7a 3e
       0.21428129 0.052460533 -0.30872142 0.24427624
000030 25 09 0c 3e b4 01 c7 3d 98 83 6f be 68 25 cc 3d
       0.13675363 0.09717122 -0.23390043 0.09968072
000040 7d ec dc 3d 3d ac 0b 3c 3c 9b 15 3e 43 7e d6 3d
       0.10787294 0.0085249515 0.14609998 0.10473301
000050 f1 ab e4 3c 48 64 7a 3e d7 a8 75 3e c3 a8 9d bd
       0.02791402 0.24452317 0.23990189 -0.07698204
000060 e9 eb 01 3e d8 c6 4b be 9d bf 88 3d 91 c5 0b 3e
       0.12687649 -0.19900072 0.06677172 0.13649584
000070 ef c7 14 3d 0f af 94 3c db fe e9 3b 13 70 55 3e
       0.036323484 0.01814988 0.007140977 0.20843534
000080 b6 85 59 3e 95 ba 83 3e 5a d2 d6 3d 57 1f fc be
       0.21242413 0.25728288 0.1048934 -0.4924266
000090 fb 48 da bd 10 20 2d be 95 f8 5e 3d d0 c5 de be
       -0.10658451 -0.16906762 0.054436285 -0.43510294
0000a0 b5 1d 1f bd ba 9c 4c bd f1 cf c6 bd e8 cd af 3d
       -0.03884669 -0.049954154 -0.097076304 0.085841954
0000b0 19 85 64 be 41 d4 34 be 5d 15 c6 3c 43 2b cf 3e
       -0.22316398 -0.17659093 0.024180109 0.40462694
0000c0 14 a1 ff 3d ec 1c 6d 3e 9d 34 bf 3d db a0 94 3d
       0.12481895 0.23155564 0.09336207 0.07257243
0000d0 cb f2 6b be 6c 89 79 be 88 e0 b8 bc 99 6c 6b 3e
       -0.23041837 -0.24368829 -0.022568002 0.22990645
0000e0 60 89 f2 be 0e 7d 44 be b4 92 b0 bd 30 3e 50 3e
       -0.47370434 -0.1918833 -0.086217314 0.20336223
0000f0 d6 0f 82 3c cd bd 6f 3e 65 cd 93 be 50 67 e7 bd
       0.015876692 0.23412247 -0.2886764 -0.11299002
000100 69 11 55 3d bd de 88 bd 02 4d 21 3d 05 e6 d5 3c
       0.052018557 -0.06683109 0.03938008 0.026110658
000110 cb 79 bd 3c 99 77 19 3d f8 6c ad 3d 48 25 91 3d
       0.023129364 0.037467573 0.0846805 0.07087189
000120 bc da 86 bd 6c eb da 3d ec 8f 3d 3e 50 ef 80 be
       -0.06584689 0.106894344 0.18511933 -0.2518258
000130 a6 5e 0e 3b dc c6 77 3d 3f 82 3e 3e 6c a8 cb 3d
       0.0021723895 0.06049238 0.18604372 0.09944233
000140 9c 91 ec bd 22 6c 14 3d 09 0c ce bc 7c 70 87 3b
       -0.1155121 0.036235936 -0.025152223 0.004133282
000150 3f f3 07 3e 91 a2 3e 3e 2b a6 61 bc 18 61 20 3e
       0.13276385 0.18616702 -0.013772528 0.15662038
000160 cd 2f c5 3d 3f af 03 bd 8e f2 87 3c cd 35 95 3d
       0.09628258 -0.03214955 0.016595151 0.07285652
000170 7c a3 fb 3a 5b 34 2b 3e ac 2e 57 3d c0 fd be 3e
       0.0019198502 0.16719191 0.052534744 0.3730297
000180 c2 bd 4b bc 98 28 a4 be 57 b5 ee 3d 89 91 42 bd
       -0.0124353785 -0.3206222 0.116556816 -0.047502074
000190 19 ae 51 3d 2a bb a6 bd fe 69 24 3e 04 8f 01 bd
       0.051191423 -0.081411675 0.16056058 -0.03163053
0001a0 30 97 63 3e 6a 15 af 3d 55 cb d0 bd 3c 3d 55 3e
       0.22225642 0.08549006 -0.101950325 0.2082414
0001b0 f1 18 45 bd d8 85 06 3d d9 7b a0 3d 02 7d dd bd
       -0.04811949 0.032842487 0.07836122 -0.10814859
0001c0 56 a4 c3 bc 90 01 2f 3e a1 54 d4 bb f9 9f 2b 3c
       -0.023882072 0.1709044 -0.006479815 0.010475152
0001d0 bf 39 64 bc b7 fb b9 bd f6 f2 fb 3d 93 b3 46 3d
       -0.013929783 -0.09081214 0.123022005 0.0485111
0001e0 a7 01 32 be 93 c5 00 be 5a fd e3 3d 06 70 1b be
       -0.17383443 -0.12575369 0.11132307 -0.15179452
0001f0 2d 26 7c 3c 2f c8 19 be f5 26 b4 bc f0 07 28 3e
       0.015389961 -0.1501777 -0.021991232 0.16409278
000200 97 e4 27 bd d2 1f a9 3c 64 a1 4f 3e 53 8f c3 3d
       -0.040989485 0.020645056 0.2027641 0.09548821
000210 67 2f 11 3e 2e 87 87 be 30 8d 94 3d 84 8a 9d 3d
       0.14178239 -0.2647032 0.07253492 0.076924354
000220 fc ad 34 bd cd 77 3b 3d 1e 7c 98 bd df a9 56 3d
       -0.044111237 0.045768548 -0.074455485 0.052408095
000230 7a 8b a1 3e 74 36 a0 be f0 7f 3b bd 92 2b 3b 3d
       0.31551725 -0.31291544 -0.045776308 0.04569585
000240 91 37 6d 3a ef 6d 1c bb d4 e5 5a bd 38 ff 1a be
       0.00090491126 -0.0023869236 -0.053441837 -0.1513642
000250 50 67 15 be 43 7b 19 3e da 78 c5 bd 76 c4 ed 3c
       -0.14590192 0.14988427 -0.09642191 0.029024344
000260 36 f1 95 3e 86 32 a4 bc 17 3d 68 3d 12 77 24 3d
       0.29285592 -0.020043623 0.056698885 0.040152617
000270 ab e2 83 3e 7e 5e 9f 3d 93 72 bc bd 29 50 db 3d
       0.2575887 0.07781695 -0.09201541 0.10708649
000280 b3 eb 89 bd 29 06 33 be 72 42 e6 3d 9a e4 79 be
       -0.06734409 -0.17482819 0.11243142 -0.24403611
000290 b6 8f 8e bc 5b cc 3f be 7d 48 56 3e fb bc e9 bd
       -0.017402511 -0.18730299 0.2092609 -0.11412998
0002a0 3e 4a 20 3e 1b f5 7f 3d 00 51 ac bd 7a 1d 82 3b
       0.15653321 0.06248961 -0.08413887 0.003970799
0002b0 38 0e 33 3d 83 89 4f be 99 e7 13 be f2 b0 b6 3d
       0.043714732 -0.202673 -0.14443816 0.089204684
0002c0 8a fa 99 3e c1 c9 e5 3c 42 93 c9 bd 8d 0c 0a bd
       0.3007396 0.028050305 -0.0984254 -0.033703376
0002d0 ec 34 ce bc 42 99 2f be 0b 51 09 3d e8 05 c1 3c
       -0.02517172 -0.17148307 0.033524554 0.023562387
0002e0 2b 9a 61 be b0 7f 55 be 8f 96 c9 3d c7 f2 94 3d
       -0.22031467 -0.2084949 0.0984317 0.072728686
0002f0 a9 2f 14 be 0d 0c 95 bd 35 2c c7 be 8d 48 de 3d
       -0.14471306 -0.07277689 -0.38900915 0.10853682
000300 a1 19 8c be 0d 9b 75 be 94 10 e6 3d 38 9d 8e bd
       -0.27363303 -0.23984928 0.11233631 -0.06963581
000310 7e 25 1c be 7c db f6 bd db 6d be 3d 19 d9 1f 3e
       -0.15248677 -0.12053582 0.09298297 0.1561016
000320 d8 b9 02 be 17 35 4e 3e cc da b8 3d 60 c8 3d bd
       -0.12766206 0.2013744 0.09026107 -0.04633367
000330 a7 69 ed be 0a ae 4e bd 7f 49 96 3e 18 9d 16 be
       -0.4636967 -0.050458945 0.29352948 -0.14708364
000340 87 e6 3d 3e 75 44 61 3c 52 bf 99 bd 19 d4 18 be
       0.1854497 0.013749232 -0.075071946 -0.14924659
000350 50 fa 46 3e ee 06 2f bd 94 49 3d bd 30 52 6b 3e
       0.19431424 -0.042731218 -0.046212748 0.22980571
000360 53 98 a1 be 57 81 b8 be b7 7a 9b be 6f 9f 64 bd
       -0.31561527 -0.36036178 -0.30367061 -0.05581611
000370 3a 6f 93 3e a3 3a 1e bd c3 5b c0 be 41 35 17 3f
       0.28795797 -0.03863014 -0.3757001 0.59065634
000380 b9 d2 d3 be 98 da 3e be c8 33 9a be a4 45 ec bd
       -0.41371706 -0.18638074 -0.3011763 -0.115367204
000390 bd ab d0 3c a1 ea fe bd 4f 24 7c 3d db 28 8b bd
       0.025472516 -0.12447096 0.061558064 -0.06794902
0003a0 b8 3c 56 bc 1a 93 6d 3e 29 7d 89 bd 8e 28 50 be
       -0.013076 0.23200646 -0.067133255 -0.2032797
0003b0 8c 5b 20 3e 53 07 13 be f1 9c f4 3c 81 c7 ec 3d
       0.15659922 -0.14358263 0.029859992 0.1156149
0003c0 e0 99 8c 3e d8 fe 2b 3e da 98 d8 bc 91 46 92 3c
       0.27461147 0.16796434 -0.026440073 0.017855914
0003d0 ff 27 11 be 12 90 65 bd 7b 06 c6 3d 74 9e 26 3e
       -0.14175414 -0.0560456 0.09669205 0.16271383
0003e0 27 4a 12 be d8 a5 6e be d4 d2 8e 3e 6b 9e 63 be
       -0.142861 -0.23305452 0.27895224 -0.222284
0003f0 24 66 5d bd 79 0a 54 be 77 fa 7c be f9 57 80 3e
       -0.054052487 -0.2070712 -0.2470492 0.25067118

fcs.2.bias f4 [64]
000000 74 5a d7 bc f7 1a 9e 3e 6e cd 85 3d aa 42 6b bd
       -0.026288249 0.30879948 0.06533323 -0.057436623
000010 d7 b1 1b bb 5c 1a 8b 3d e2 d7 98 bd 9a fd a4 3e
       -0.0023757124 0.06792137 -0.074630514 0.32224733
000020 ea ee 9f bd ec ef c9 3e 79 fe a3 3e 52 76 6a bd
       -0.07809241 0.39440858 0.32030085 -0.057241745
000030 2f 5d 92 3e ab 97 9e 3c 93 cf 2e bd 83 e3 34 bd
       0.28586718 0.01935943 -0.042678427 -0.044162285
000040 e0 45 ba bd a3 1a 51 3e fc ba 91 bd 82 7b 88 3d
       -0.09095359 0.20420317 -0.071157426 0.06664182
000050 69 16 72 3d 1e 52 97 3e 3a 1e 69 3d 62 9f 5b bb
       0.059103403 0.29554838 0.056913592 -0.0033511748
000060 72 04 4e be 6f 8a 81 3c a0 52 a0 3d bd dc 4c 3e
       -0.20118883 0.01581308 0.078282595 0.2000608
000070 a9 19 ec 3d 9a 1f 9b 3e 38 b1 89 be e2 e1 85 be
       0.11528332 0.30297548 -0.2689302 -0.26148897
000080 fd cb 02 be 42 10 90 3d 5a 5e 61 3e 88 27 cd 3c
       -0.12773128 0.07034351 0.22008649 0.025043264
000090 82 39 6a be a0 91 ce 3d 52 56 09 3e 24 a3 d0 bd
       -0.228735 0.100863695 0.13411835 -0.101873666
0000a0 79 a6 20 be 93 45 22 3e 92 b1 ba 3d e4 cb 37 3d
       -0.15688504 0.15846853 0.091159 0.04487218
0000b0 7c 40 96 bd 5e 3f cc 3d 81 e6 11 3d be c9 a1 3d
       -0.07336518 0.09973024 0.035620216 0.078998074
0000c0 a8 cd fe bc e8 20 c2 3e 26 27 f4 bc 84 fc 8c 3c
       -0.031103924 0.3791573 -0.029803824 0.017210253
0000d0 44 40 fa bd 9d 6e 27 3c 63 ea 9b 3e 09 92 c2 3d
       -0.12219289 0.010219243 0.3045226 0.0950051
0000e0 ef 09 d9 3d d9 4e 6e be 2c 77 d8 3e 49 89 ce bd
       0.10597598 -0.23272265 0.4227842 -0.10084779
0000f0 ae 63 48 bd 00 50 08 bb 13 ab 50 bd 28 83 50 3d
       -0.048923187 -0.0020799637 -0.0509444 0.05090633

out.weight f4 [4, 64]
000000 59 ac ec bd b3 a3 e7 3d 9c 4e 9c 3d 45 92 bc 3e
       -0.1155631 0.1131052 0.07632181 0.36830345
000010 c2 2a a4 3e e2 dd 37 be 40 70 d6 bd ea 8f d3 3d
       0.32063872 -0.17955735 -0.10470629 0.10330184
000020 df 69 35 3e 18 26 6b 3e cb 32 2f 3e 76 b3 a3 bd
       0.17716168 0.2296375 0.1710922 -0.07993214
000030 59 31 bd 3d db d4 72 3e fe a2 50 be b1 f6 d4 be
       0.09237928 0.2371401 -0.20374677 -0.4159446
000040 af 58 05 3e f6 16 c5 3d 5f 30 b4 3d 2a 85 67 3a
       0.13022111 0.0962352 0.087982886 0.00088317937
000050 ad fc 77 3d fa 35 14 3e 2b 0b cb bb b8 47 fb bd
       0.060543705 0.14473715 -0.0061963997 -0.12269539
000060 75 5e 76 be ab 40 1f 3e 69 14 58 3e eb 4c 8e 3e
       -0.2405947 0.15552013 0.21101536 0.2779306
000070 a5 e0 1e 3e c1 d6 31 3e 75 52 de bd 48 68 7e be
       0.15515383 0.17367078 -0.10855571 -0.24844468
000080 52 d8 b4 be 13 1c 6e be 82 a3 81 3e 30 a1 05 3e
       -0.3532129 -0.23252897 0.2532006 0.1304977
000090 0c 65 7f bd a1 33 75 3d 7a 38 a6 3d a1 ca c1 3d
       -0.062352225 0.05986369 0.08116241 0.094624765
0000a0 d8 30 ac be 42 7f 05 3e df be 03 be 7e af 4e bd
       -0.33631015 0.13036826 -0.1286578 -0.05046033
0000b0 1c b3 bd 3d 06 58 86 3e d8 60 e6 be 4d 86 f9 3d
       0.09262678 0.26239032 -0.4499576 0.12183819
0000c0 f7 f7 0c be c3 9d 7c 3e 33 6a 73 3c eb 19 c6 3d
       -0.13766466 0.24669556 0.014856863 0.09672912
0000d0 a8 a5 0e 3d ee 46 6c 3d f6 94 79 3e 51 1a a0 3e
       0.03482595 0.05768483 0.2437323 0.31270078
0000e0 c2 45 a6 3e 94 ab ec bd 7a 4f 11 3e 33 13 b1 bd
       0.32475096 -0.115561634 0.14190474 -0.0864624
0000f0 a5 61 86 3b 45 cc 55 3c 57 4d b7 bb 7a bc f6 be
       0.0041009956 0.01304919 -0.0055939364 -0.4819067
000100 a0 8e d2 3d 30 cb 12 3e 9d ce 67 3d 51 07 df 3e
       0.1028111 0.14335322 0.056593526 0.4356027
000110 97 09 71 bd 88 06 61 bd 21 0f e5 3d 39 26 61 3e
       -0.058847036 -0.05493787 0.11184526 0.21987237
000120 7f 6a f0 bd 56 a7 ac 3d 62 f1 88 3e 61 f0 fa bd
       -0.117390625 0.08430354 0.2674666 -0.1225288
000130 28 b2 eb 3d af 51 5b 3e b7 83 ed bd c2 f6 fb bc
       0.1150859 0.21417879 -0.11597388 -0.030757312
000140 d8 21 ec 3d 78 02 9d 3e d2 41 c2 be c4 f4 be 3d
       0.11529893 0.30665946 -0.37940842 0.09324029
000150 70 20 63 3e c4 52 5f 3d 23 08 20 3e b9 cd 0b bd
       0.22180343 0.05452229 0.15628104 -0.03413174
000160 d7 96 8c be 23 b1 67 bc 68 db 52 3e df 62 bb 3e
       -0.27458832 -0.014141354 0.2059151 0.3659887
000170 ba be 3a 3e e8 86 37 3e a9 54 fd bd b1 c4 0e be
       0.18236819 0.17922556 -0.12369663 -0.1394222
000180 45 a1 29 3e 74 75 30 bd d2 cc d0 3d f6 47 0d 3e
       0.16565426 -0.043080762 0.101953164 0.13796982
000190 84 07 3a be 30 6b 03 3e dd 54 32 3e 10 cd ad 3c
       -0.1816693 0.12833858 0.17415185 0.021215945
0001a0 ca ea 7f be bf 76 33 3e 7e 90 09 3e bd 25 03 be
       -0.24991909 0.17525767 0.13434026 -0.12807365
0001b0 bf 18 10 bd 93 6d d5 3d a9 95 d7 3d ac 36 36 3e
       -0.03517985 0.1042129 0.10526592 0.17794293
0001c0 f7 dd 40 3b 28 0f 82 3d 8e 37 22 bd c0 a8 8a 3e
       0.0029429176 0.06350547 -0.039603762 0.2708187
0001d0 7b d4 d5 3d 0b 8f 13 3e f1 56 82 3e 71 d4 c1 3d
       0.10440918 0.14410035 0.25456956 0.09464348
0001e0 05 37 bf 3e e7 62 e2 bd bb 9f 0d 3e 48 99 ab bc
       0.37346664 -0.110540204 0.13830464 -0.020947114
0001f0 4f 7d 16 be a6 1c da 3d 17 df 85 be 27 38 95 3d
       -0.14696239 0.106499955 -0.26146767 0.07286101
000200 21 f8 6d 3e c7 93 3b 3d 40 04 2e 3e 7a 89 09 3e
       0.23239185 0.04579523 0.16993809 0.1343135
000210 b9 50 80 bd 1a 59 37 be 8d 72 3e be 9f 9b d9 ba
       -0.062653966 -0.17905083 -0.18598385 -0.0016602165
000220 95 96 5c 3e 0d d0 4d 3e 96 d2 41 3e 4d 6b d0 3e
       0.21541817 0.20098896 0.18927988 0.40706864
000230 10 68 80 3e d9 0c 8f 3e 75 34 83 be 12 b7 f9 3d
       0.25079393 0.2793949 -0.2562596 0.12193121
000240 e6 16 3b 3d ad 38 21 3e c0 2b 5d 3d 62 ca 7e 3e
       0.045676135 0.15744276 0.0539968 0.2488189
000250 f9 46 e1 3d 09 56 41 3d 0b 33 fc be f8 f3 fb be
       0.10999865 0.04720119 -0.49257693 -0.4920957
000260 1e bf 37 be 53 11 c0 3e 25 36 82 be 6f 53 43 3e
       -0.17943999 0.37513217 -0.25431934 0.19074796
000270 99 ad c9 bb 37 62 38 3e ed f0 9f be 45 6c 07 3e
       -0.0061547277 0.18006216 -0.312385 0.13224895
000280 6b c5 4b 3e a3 77 a9 bd ee c5 cf 3d f1 5f d7 3d
       0.19899528 -0.08274772 0.10145174 0.10516346
000290 e2 e2 6d bc fe c2 1f bd 6b 47 f0 3c 1f 0e 50 bd
       -0.014519425 -0.03900432 0.02933093 -0.050794717
0002a0 18 52 60 be fb 54 43 be 79 89 57 3e 28 98 8b 3e
       -0.21906316 -0.19075386 0.21048535 0.27264524
0002b0 0c 39 1b 3c aa 8e 58 3e fb 12 a1 be c4 fa e6 3c
       0.00947405 0.21148172 -0.31459793 0.028195746
0002c0 cb d2 bc 3d 81 43 46 3e d1 41 e1 bd 64 5b 89 be
       0.09219893 0.19361688 -0.109988816 -0.26827538
0002d0 e9 8c 87 3d 89 60 a8 3e 6d 67 92 3e e0 46 c9 3e
       0.06618673 0.3288615 0.28594533 0.39311886
0002e0 f2 b3 ac 3e eb 27 a4 bd 0b 4a 11 3e b8 6d 31 37
       0.33731037 -0.08015426 0.14188401 1.0575568e-05
0002f0 54 3e 01 bf 98 d9 23 3e a1 37 b6 bd c8 a3 fb 3e
       -0.5048573 0.16000974 -0.08897329 0.49148393
000300 3f ad 5c 3d 14 ce 60 3e ba 22 44 3e 6b b9 e6 3e
       0.053876158 0.21953613 0.19153872 0.45063338
000310 56 4a fa 3e 1a 0a d9 be 37 3c 57 be 99 c8 82 3e
       0.4888484 -0.4239052 -0.21019064 0.2554367
000320 3c d9 4e be 9f 0d 53 3e 0a 3c 21 3e 56 23 f3 3d
       -0.20200056 0.20610665 0.1574556 0.11871974
000330 db 6a 98 3d 59 4f a1 3e b6 5c ad be 4b f0 c7 be
       0.07442256 0.3150585 -0.33859795 -0.39050516
000340 0f c6 71 be ea 7b b7 3d ce 14 69 be a7 07 56 3c
       -0.2361071 0.089591816 -0.22761843 0.013063348
000350 06 f2 93 3e 55 18 2d 3e 1e 8e 56 3a b0 e8 40 bc
       0.28895587 0.16903813 0.0008184629 -0.011774227
000360 7a 60 98 bc b4 94 90 3d b5 aa f4 be 4d 41 0f 3e
       -0.018600691 0.07059613 -0.4778649 0.13989754
000370 85 e9 6e bb 00 fb 8d 3d 05 a3 f5 bd b7 06 0e be
       -0.0036455106 0.0693264 -0.11993984 -0.13869749
000380 47 d5 99 be b9 aa 09 3e 60 94 73 3e ca 7e 50 bd
       -0.3004553 0.13444032 0.2378707 -0.050902165
000390 84 03 01 be 0d a1 e7 bc 8a a2 ae bc 1f 7a e8 3d
       -0.12598997 -0.028275037 -0.021317739 0.11351418
0003a0 91 94 8d be bf b2 82 3e 0b 49 02 3e ba 5b 39 3e
       -0.2765241 0.25526997 0.12723176 0.18101397
0003b0 dd 05 0f bd eb 43 68 3d db 34 5a be 45 35 96 3e
       -0.0349177 0.056705397 -0.21309225 0.29337516
0003c0 d1 6c 81 3e 76 d8 01 3e d9 3e 9f bc a5 5c a2 3e
       0.25278333 0.1268023 -0.019439148 0.31711307
0003d0 f5 94 a2 3a 06 01 16 be 49 ab a5 3d 28 76 af 3d
       0.0012404012 -0.14648828 0.08089311 0.085674584
0003e0 ec 25 84 3d 64 33 f0 be 42 93 43 3e 07 35 6f 3d
       0.064525455 -0.46914208 0.19099143 0.05840018
0003f0 0e da d2 bd 17 dd 8a 3e 42 a1 0b be b9 53 b9 3a
       -0.10295497 0.27121803 -0.13635734 0.0014139331

out.bias f4 [4]
000000 b5 02 1d 3e da 3b 39 3e f5 d1 46 3e e9 47 12 3e
       0.15333064 0.18089238 0.1941603 0.14285244
