p1_navigation/1checkpoint.pth (torch_old, 23435 bytes, 8 tensors)

fcs.0.weight f4 [32, 37]
00000000: a244 83bd a09d 93bb ca9a 113d d2f5 6abc
00000010: 6cde c3bc 865d 19bb 3169 a6bb 760a cb3d
00000020: 0b33 4e3e da71 3a3e 38c9 963e 550a 67bf
00000030: eaf3 96be f63c f0be 42ac f0bf 71df edbc
00000040: 4f6e 4e3d 615e c13d c057 3d3d 674b 143c
00000050: 42e7 003e 549b 813e 0754 143e d052 263e
00000060: 6dcb 40be 0c26 2fbd 6ceb ab3d 9997 1c3c
00000070: c1b7 833d 1fcc 5c3d a224 ee3a 18fe 993a
00000080: 74a1 0c3d ecc2 e43b e6b7 433c 7ef6 273d
00000090: f3da 073b 91e7 323e d8a0 b53d cc2a 863d
000000a0: faf0 233d 2b13 24bc f6ca 83bd 2977 f1be
000000b0: 1510 393c ddee a83e c883 213f 6ff4 61bc
000000c0: 9faf 46bd b307 9c3d 7a5c f33d 7072 933e
000000d0: 882d edbd d86c 523d f7d0 403e d076 d13c
000000e0: c41d cebd f904 47be be69 bebd 034f f5bc
000000f0: 80ad ad3d 5728 a83e 37df 37be c32b c53d
00000100: 400d ee3d b474 e7bd 089a 96bd a24b 3a3c
00000110: ee75 593e aa6c 033e 934c dabd ee19 7bbe
00000120: f5ab 20bd 4a4d 263d d478 873e f304 703d
00000130: 9eaf 3ebc c078 ed3c f322 3ebe aca9 50be
00000140: 2351 4abd 70e4 273e 5127 593e 9563 963d
00000150: 1584 3f3e 0d91 a13d 706d 9cbd 4ceb c53d
00000160: eee2 443b 9d8e 6f3d 51d5 09bd 5520 df3d
00000170: 52f3 853e 4a4b be3d a975 08be 7bb3 513d
00000180: 20a1 c53d 5a65 933c a4d0 89be a76c 30be
00000190: b5ae 393e f16b 013e 9112 6d3e c4ed a83e
000001a0: 8bd3 5dbe 01ac 4dbd b66b 73bd e1d6 923d
000001b0: e865 003e ff00 113d 163a 17bd f354 873d
000001c0: 3d18 c0be d2af 4c3e 4a13 973d c7b7 8dbf
000001d0: 132a 8cbe d938 c4bd be54 4a3e c26a 5dbe
000001e0: 2b00 71bf 008c 3abd ebcd d1bc d5ad a2bd
000001f0: d5aa 07be 3420 c13c fd53 cbbe 7c8e cdbe
00000200: b8a3 a63d 9485 f4be e526 03be 2e5f 6cbc
00000210: d212 47be 4c0c 7abd af14 6d3d de42 07bc
00000220: 074e aabe 4525 1bbe d575 1f3e a019 51bd
00000230: 7ca7 3ebf f527 9cb8 25b9 463e 4a19 06bc
00000240: 0845 aebe f544 8ebe ce03 243e 2150 c63c
00000250: c041 f33a 0d58 7cbe 7284 f6bd c0bc 9bbe
00000260: dbaf 09bf bb0b a53b 7cb3 b63c b5c5 48be
00000270: c5e8 36bd 38a4 10bf 4f5f 25be 10eb 2fbe
00000280: 0e23 a93d feac 0abe d08f 2f3c 6dae 0cbe
00000290: d123 aebe 90f2 c03c 9abd 3fbe b2e1 e4bd
000002a0: e319 b6ba 91b8 43be 07c5 d73c 62bd 89be
000002b0: 209e 733e 5856 ec3d 9beb 2fbe ed8a a33c
000002c0: a4b0 21bf d5a7 5bbf c06d a6be b165 cdbd
000002d0: 05fd ef3d 22b3 6d3e 179f 8139 a2fa 4f3d
000002e0: 25b8 3f3d e01e a83c 38c9 a93d 37e8 94bd
000002f0: c303 60be 11cf ddbd 27d9 00be bff0 623e
00000300: c7ec 323e 6356 aebe 2657 9abe 289b b0bd
00000310: 2868 bcbd d262 06bd c991 0abe 991f dc3d
00000320: 386e 02bf 3baa b23d 1ee2 cb3d 424e 00be
00000330: 2d45 24bf 9bc9 d93d 3c46 0a3e f9cc 79bd
00000340: 3b40 2b3c 3580 993c 5384 98be 8ab2 df3d
00000350: 2e13 473e 2de2 b2be 5fa9 06bf 13bd a63c
00000360: 5464 61be 226e d7bc dc27 61be a77d 33bf
00000370: 424d 9fbd 1192 963d 5c9b 99be 9703 fbbd
00000380: 6f88 f3be 67fd e63d 5d91 03bf bb07 8ebe
00000390: 65a9 a1be dfa3 ccbe dae6 06bd 6812 6cbe
000003a0: 9504 b8be d075 7cbe 6202 cc3d bf3f 85be
000003b0: 0559 eb3c 481d c8be 7282 83bd 1ae2 dfbd
000003c0: dc3e ed3c 1b8c 193d 9256 04bf 788e 03bf
000003d0: c1e4 503d c8d4 02be d598 02bb c18b 18be
000003e0: 40e4 50be 4d00 18be efa6 a9be bc48 f13c
000003f0: 76e2 193e df19 76be 7957 a5be d108 47be
-0.06409575 -0.0045048743 0.03554801 -0.014340835 -0.02390977 -0.0023401692 -0.0050784578 0.09914105
0.20136659 0.18207493 0.29450393 -0.9025014 -0.29482967 -0.4692151 -1.8802569 -0.02903721
0.050398167 0.094418295 0.046226263 0.00905118 0.12588218 0.25313818 0.14485179 0.16242528
-0.18827601 -0.042760894 0.083945125 0.009557628 0.06431533 0.053905603 0.0018168876 0.00117487
0.03433366 0.0069812443 0.0119457 0.041006558 0.002072987 0.17471148 0.08868569 0.065511316
0.040024735 -0.010014336 -0.06435196 -0.47161224 0.011295338 0.32994738 0.6309171 -0.013791188
-0.04850733 0.07618656 0.11882873 0.28798246 -0.1158095 0.051373333 0.18829714 0.02556935
-0.10064271 -0.1943549 -0.092975125 -0.029944902 0.08480358 0.32843277 -0.17956243 0.096274875
0.11623621 -0.11301556 -0.07353598 0.011370571 0.21236393 0.12834421 -0.106591366 -0.2452161
-0.03922649 0.040601052 0.26459372 0.05859847 -0.01163855 0.028988242 -0.1856802 -0.20377225
-0.049393784 0.16395736 0.21206404 0.073432125 0.18702729 0.07888994 -0.07638061 0.0966402
0.0030042487 0.058485616 -0.0336507 0.10894839 0.261622 0.09291704 -0.13326134 0.051196557
0.09649873 0.017992664 -0.26916993 -0.17228948 0.18133052 0.12638833 0.23151614 0.329939
-0.21662728 -0.050212864 -0.059428893 0.07169891 0.12538874 0.03540134 -0.03692063 0.06608
-0.37518492 0.19988945 0.07376726 -1.1071709 -0.2737585 -0.09581155 0.19758889 -0.21622756
-0.9414088 -0.04554367 -0.025610885 -0.07943312 -0.13248761 0.023574926 -0.39712515 -0.4014777
0.081366956 -0.47758162 -0.12807806 -0.0144269895 -0.19440773 -0.061046883 0.057881054 -0.0082556885
-0.33262655 -0.15150936 0.15572293 -0.05104983 -0.7447431 -7.446102e-05 0.19406565 -0.00818474
-0.34037042 -0.27786985 0.16017076 0.02420813 0.0018559024 -0.24642964 -0.12036981 -0.30417442
-0.5378396 0.005036799 0.022302382 -0.19606669 -0.04465558 -0.5650058 -0.16149639 -0.17179513
0.08258639 -0.13542554 0.01071544 -0.13738413 -0.340117 0.023553163 -0.18724671 -0.111758605
-0.0013893213 -0.19113375 0.026339067 -0.269023 0.23790789 0.11539906 -0.1717972 0.019963706
-0.6316016 -0.85802966 -0.32505608 -0.10029162 0.117181815 0.23212865 0.00024723329 0.05077613
0.046806473 0.020522535 0.082903326 -0.07270854 -0.21876435 -0.108305104 -0.12582837 0.2216215
0.17473136 -0.34050283 -0.30144614 -0.08623344 -0.09199554 -0.032809086 -0.13532175 0.10748214
-0.5094943 0.08723875 0.09955238 -0.12529853 -0.64168054 0.10634156 0.13503355 -0.060986493
0.010452325 0.018737892 -0.29788455 0.109227255 0.1944091 -0.34938183 -0.5260219 0.02035383
-0.22010928 -0.026297633 -0.21987861 -0.70113605 -0.07778408 0.07352079 -0.30001342 -0.12256544
-0.47565028 0.112788014 -0.5139368 -0.27740273 -0.3157455 -0.39968774 -0.032935 -0.23053896
-0.35940996 -0.24654317 0.09961392 -0.26025197 0.028728971 -0.3908484 -0.06421365 -0.10931797
0.028960638 0.03748713 -0.51694596 -0.51389265 0.050999407 -0.12776482 -0.001992752 -0.14897062
-0.2039957 -0.14843865 -0.33135173 0.029453628 0.15027794 -0.24033307 -0.322933 -0.19436957

fcs.0.bias f4 [32]
00000000: 0030 8bbc 303b 46bd de0e 77bd 3dad 063e
00000010: 7c9a 123e 8776 9ebd 56ed 0cbe dbac de3d
00000020: 295a 9a3d 4837 003e 53fb 6f3d f723 f03d
00000030: e9e1 143e d979 b3bd c9e5 9e3c ea51 dabd
00000040: 2133 ef3d fbfe 4e3e 21e2 223e 8618 60be
00000050: 811b 3f3c 0a36 8fbd 3b14 7ebd 8aa9 073e
00000060: a64a afbb 8d16 0f3d 21ef d4bc 78b1 763d
00000070: d9fd 1b3e 0b99 14bc bce0 e1bc d597 0dbe
-0.016990662 -0.04839629 -0.060316913 0.13152023 0.14316744 -0.07737451 -0.13762411 0.10872813
0.07536728 0.12521088 0.05858929 0.1172561 0.14539303 -0.08763475 0.01939668 -0.10660155
0.11679674 0.20214455 0.15906574 -0.21884355 0.011664272 -0.06992729 -0.062031012 0.13248268
-0.005349475 0.034933615 -0.025992932 0.06022784 0.15233554 -0.009069691 -0.027572982 -0.1382745

fcs.1.weight f4 [64, 32]
00000000: 2265 b4be 692e 3f3e 05ce c9bd 92aa f4bd
00000010: 57be 643e 848c 253d 6ff1 893e f271 0ebd
00000020: ac71 debd 7ceb c0bb 7a40 b6bd 5a54 d2bc
00000030: 9f04 5a3e bfff 46be 8861 633e 6cd5 f43d
00000040: f7da 70bd e0a6 fabd 019b 0a3c cef4 1f3d
00000050: c9f0 ec3b cf92 08be e47a f83d 3ccd 65be
00000060: 6274 fcbd dedb 81be e808 c13d cdf3 4bbe
00000070: 5694 04be d91d 13bf b496 cebd a2cf 68be
00000080: 1633 a13e 20f5 d43b c48e 8c3d 702a b23c
00000090: 5889 50bd e940 e4bd afde 1c3e d069 833d
000000a0: 2764 023b a0b8 61be b577 133a 0f70 573e
000000b0: 41d9 82bd 8cee 50be dd09 523e 0e48 2a3b
000000c0: d8f5 09bd 6d61 463c a5b1 243d 86e2 063e
000000d0: fc1e 7c3e 33a4 a7bc 1675 8bbd e0a4 3d3e
000000e0: b4cb 9b3d 46bc 29be 887b 913e daa7 d4be
000000f0: 21ec 2c3e cf9e 503e 49c9 083c 9f88 fc3d
00000100: c45f bc3e 4fc2 90bc 9d3b 193e 5ff4 d33d
00000110: 8c66 2f3e e0c3 22be 9479 19be 06fb 1e3e
00000120: e702 f4bc a9de 57bd dcab 173e e588 7c3e
00000130: fdcf a6bd e6f9 863d b81c 9ebe 9881 50be
00000140: d630 91bb 1ae1 cebc 3e9b 3d3e 5060 173e
00000150: 04d3 0bbe 1ad8 e03c a687 a03b 3084 9d3e
00000160: 0bb5 953d a444 983e c60e 19be f950 39be
00000170: 0b06 1ebe e117 263e a07e 8c3e a28b e03d
00000180: 5e3c 4d3d a359 71bd 33b1 8b3e d402 4f3d
00000190: e7cb 11be d748 3fbd 50f7 8b3d a84f 9ebd
000001a0: fe2f 333d 5709 a43d 6c12 eebd 28dd 993d
000001b0: f1d2 96be b3f2 673e 647c 0c3e a2f7 14bd
000001c0: 4e3e 843c eb76 03bd b920 92bd ba22 353d
000001d0: caaa 2b3e 0121 4b3c dfeb debd 089f 41bd
000001e0: e982 59be 13fc 5bbc bc54 723d 1498 5e3e
000001f0: e162 2fbc ba0c 843e deb4 acbd 6d2e f53d
00000200: 1b6b 043e d837 833c bf6f 083e e361 343d
00000210: 8ca7 d03d afec 1c3e c984 48be 711a 783e
00000220: 02c3 313e 1c25 7d3e 3329 493c b352 703e
00000230: e710 efbd 3017 fdbd 7538 df3d e2cb a6bd
00000240: c6b7 4e3d 9856 ac3c 724f 863b bb6f 023e
00000250: 0da9 d53d 6e80 36bd cd2e 613c 829b 40be
00000260: 7377 58be 3e4c 7f3d bdce debe 28db af3e
00000270: c1ed 05be 9053 b9bd 88de c1bd 4d97 9f3d
00000280: 7c46 5d3e 277d 61bc 7d24 e93c 0b14 543e
00000290: c8f8 263e cfaf dabd edaf 8bbd e89a 9e3c
000002a0: 4823 503e e15a 4d3e 5b31 7a3d 7fe8 51be
000002b0: 64d9 f8bd 691d 6c3e be95 0b3d f288 113e
000002c0: b7bc c33d 5133 083e 5e57 f03d 5cbf 49bd
000002d0: eeee 65bd 7974 5a3d 9b90 b63b 7f8b e73d
000002e0: aaac e9bd d94b afbd 4924 48be 30f3 493e
000002f0: ba38 223e 9b2e ffbc c1bd e23d b844 a3bd
00000300: 8174 363e 03e1 d8bd 0061 443d 1d86 083e
00000310: 27f3 e83d 8e0d 153e 5efe 743e cc5f cf3c
00000320: a413 d1b9 d0d1 9fbe d90e 2dbe 1797 bb3c
00000330: eeee eb3c d2b3 f1be 32ba ecbd 4f63 e3bd
00000340: 8f9c 14be 6eba 013c 2c61 163e ae4b 3d3d
00000350: 7f75 bdbd 52ba 3fbe 93ed 09bf 4ba8 953c
00000360: e56b eb3d f2cc c7bd 5502 0ebf 073b 5dbe
00000370: f107 11be 9c5b b9be f515 2ebe ffcb 8e3e
00000380: 3866 a9be 1fcc 04be 3be0 3e3d a9f8 29be
00000390: 0d50 9fbe 64b5 863e cf55 11be c72c b43c
000003a0: 613c 9fbc 5e4d 6ebe d9e8 e33d 96c2 22be
000003b0: f841 1c3e 61ec 55be 59a7 303e 9781 6dbe
000003c0: 5c7e 883c 883c a0bd f778 44be 1590 d13c
000003d0: 6aaf 57be 6f37 cc3d 28cc cdbd b52f cebd
000003e0: 81e4 083e a7d7 83be c4b8 113f 9e86 bbbe
000003f0: 06d7 e13c 1500 eabe 15ab 023e dcd3 69be
-0.35233408 0.18670048 -0.09853748 -0.11946596 0.22338234 0.04041721 0.26942012 -0.034776635
-0.10861525 -0.005887447 -0.08899017 -0.025674988 0.21290825 -0.19433497 0.22205174 0.119547695
-0.05880257 -0.1223886 0.008459807 0.039051823 0.0072308523 -0.13337253 0.121328145 -0.22441572
-0.12326886 -0.25363058 0.09425527 -0.19917221 -0.1294721 -0.5746742 -0.10087338 -0.22735456
0.31484288 0.0064989477 0.06863168 0.021748751 -0.05091223 -0.11145193 0.15319322 0.064166665
0.0019896121 -0.22043085 0.0005625443 0.2103884 -0.06389094 -0.20403498 0.20511575 0.002598289
-0.03368172 0.012108189 0.040208478 0.1317235 0.24621195 -0.020464038 -0.06809442 0.18519926
0.07607213 -0.16575727 0.2841456 -0.4153431 0.16886951 0.2037308 0.008348771 0.12330746
0.36791813 -0.017670779 0.14964147 0.103493445 0.17128962 -0.15895033 -0.14987785 0.15525445
-0.02978654 -0.05270258 0.14811653 0.24661596 -0.08145139 0.06590633 -0.30881286 -0.20361936
-0.0044308705 -0.025253821 0.18516251 0.14782834 -0.13654715 0.027446795 0.004898983 0.30764914
0.07309922 0.2973987 -0.14947042 -0.18097295 -0.15431993 0.16220047 0.27440357 0.10964133
0.0501064 -0.058923375 0.2728363 0.050539806 -0.14237939 -0.046700325 0.068342805 -0.07730037
0.04374694 0.08009594 -0.116246074 0.07512885 -0.2945781 0.22651176 0.13719326 -0.036368974
0.01614299 -0.03209583 -0.071351476 0.04422257 0.1676437 0.012398005 -0.108848326 -0.047270805
-0.21241345 -0.013426798 0.05916284 0.217377 -0.010704727 0.2579096 -0.08432935 0.11971746
0.12931482 0.01601784 0.13323878 0.044038665 0.10188207 0.15324663 -0.19581904 0.24228837
0.17359546 0.24721187 0.012277889 0.23469047 -0.11673146 -0.12357938 0.1089944 -0.08144356
0.05046823 0.021037385 0.004098826 0.12737934 0.104326345 -0.044556074 0.013744068 -0.18809322
-0.21139316 0.06232857 -0.43517104 0.3434689 -0.13078977 -0.090491414 -0.094662726 0.0779253
0.21608919 -0.013762749 0.028459782 0.20710771 0.1630584 -0.10678064 -0.068206646 0.019360974
0.20325959 0.20054199 0.061082225 -0.20498846 -0.12150839 0.23058094 0.034078352 0.14212397
0.09557479 0.13300826 0.11735414 -0.04925476 -0.056136064 0.053333733 0.0055714375 0.11305904
-0.11409886 -0.08559389 -0.19545092 0.19721675 0.15841952 -0.031150153 0.11071349 -0.079720914
0.1781788 -0.105897926 0.04794407 0.1333241 0.11374503 0.14555952 0.23925158 0.025314234
-0.0003987822 -0.31214762 -0.16900195 0.022899194 0.028800454 -0.47207505 -0.115589514 -0.11102926
-0.14512847 0.007917983 0.14685506 0.046214752 -0.09250926 -0.1872342 -0.53878134 0.018268725
0.114951886 -0.09755887 -0.5547231 -0.21604548 -0.14163186 -0.36202705 -0.17000563 0.27890012
-0.330858 -0.12968491 0.04660056 -0.16598763 -0.3111576 0.26310265 -0.1419289 0.021994008
-0.01943797 -0.232717 0.111283965 -0.15894541 0.1525954 -0.20890953 0.17251338 -0.23193966
0.016661815 -0.078240454 -0.1918677 0.025581399 -0.21063009 0.099715106 -0.10048705 -0.10067693
0.13368417 -0.25750467 0.56922555 -0.36626142 0.027568351 -0.45703188 0.12760575 -0.22834724

fcs.1.bias f4 [64]
00000000: 7595 873e 6aeb bd3d 73f3 01be 67db 00be
00000010: a37a 3fbd 6094 593e 87a3 e9bd 389b 593c
00000020: f032 bcbd f73d 0dbe 1478 4dbe 7aa6 83be
00000030: a421 f2bc 9a18 26bd bea6 1cbd 2dca ef3d
00000040: 2472 3abc b2d8 bb3d 5d95 d5bc 1e57 953e
00000050: cfce fcbd 03be 3dbe 36d3 eb3c 0c1e 9fbc
00000060: 6910 473d 42cf bbbd 7345 503d 5290 143e
00000070: f606 1d3e f100 53bd 652d 123e 048f f93d
00000080: 9d66 bcbd 5592 893d adc5 5fbe ea78 1b3e
00000090: 9772 e73d 5b49 a03d 82a7 09be 32c0 5ebd
000000a0: 453e 43bc 6697 0e3e 6724 00bd faed 0e3d
000000b0: df53 813e 0edb 883e 8e74 98bc 2ab9 2d3e
000000c0: e097 e0bb 78aa 523e 03be 553e b83d cebd
000000d0: e2e7 dbbd e601 df3c 667d b73d 9a7e bbbd
000000e0: 916f 3e3e 274b b5be ee45 fe3d 639b 6d3e
000000f0: 0e4e 863d 1e44 ea3c 3453 623e 7a0a 57bd
0.26481214 0.09273417 -0.12690525 -0.12583695 -0.046747815 0.21248007 -0.114081435 0.013281636
-0.09189403 -0.13793169 -0.20065337 -0.2571295 -0.029557057 -0.040550806 -0.038244955 0.11708484
-0.011379752 0.09172191 -0.026072199 0.29168028 -0.12344133 -0.18529515 0.028787237 -0.019423507
0.048599634 -0.09170391 0.050847482 0.14508179 0.15334687 -0.05151457 0.14275129 0.12185481
-0.091992594 0.06717364 -0.21852751 0.15182844 0.11301153 0.078264914 -0.13442805 -0.05438251
-0.011916702 0.13924941 -0.031284716 0.03489492 0.252593 0.26729625 -0.018610265 0.16965166
-0.0068540424 0.20572841 0.20873265 -0.10070366 -0.107375875 0.027222585 0.08959465 -0.09155007
0.18597247 -0.354089 0.12415682 0.23203807 0.065578565 0.028596934 0.22102052 -0.052500226

fcs.2.weight f4 [32, 64]
00000000: 2c99 83be 9a4a ae3d 6647 6b3e 87c5 533c
00000010: 1fdb a73d 21e0 483b d603 a8bc 214f 7f3d
00000020: 4c99 813e 042e 6d3d 12da c63e 7f0d 943d
00000030: 8b56 e83e 56f9 8abe 780e 833e 6b28 72be
00000040: c713 1d3e 8ee6 2b3e 8585 2a3e f507 003d
00000050: d7ce d93d d4e9 a53d bbe8 713e 4a02 1c3d
00000060: 0205 a13d 10e0 8e3d 5edb a8be e436 1e3e
00000070: b477 2f3d 79b4 b73d 388b 22be b5ce 003e
00000080: 70ba ecbb 3f15 77be 09ca 07be 97ae c4be
00000090: 1c16 b1bd db92 213e 9af3 69bc 7ab6 3b3d
000000a0: b3d9 073e ff86 15bd 0ffb 543d 1903 c63d
000000b0: 5115 d9bd f946 4abe 938f a53d be3b 3fbe
000000c0: a237 9c3d 2d56 163d 119f 68bd 641d 393c
000000d0: 0bb2 ec3d 4d77 923e d48c debb 17e7 723e
000000e0: 7a14 f43c 8a80 363d f619 ac3d d4ec 0a3d
000000f0: 8046 9d3e d515 703d b1ab 23be 1bba 19be
00000100: c988 80bd c875 453e 5168 c93d 5982 34be
00000110: 9900 58bc 482c 453e d813 06be db5a 4c3e
00000120: f56a a33d e5e1 a1be 681e 7f3e fd4d 13be
00000130: 1110 15be 0924 89bd f617 24be 7f3f 293e
00000140: 2a42 2e3e 9a11 a4bd 57d8 81bd b911 363e
00000150: bce1 3bbe 1c03 ea3d 0d84 af3e 82b4 583e
00000160: acb5 003e 8352 8e3d f046 44bd a193 46bd
00000170: 8306 513c 5fe5 0abe 182e 4fbd ae33 9a3b
00000180: 7646 9d3e 84a3 77bc 4acb c1bc bb55 1e3e
00000190: f24a 1c3e ee07 793e 3046 2abd 3a0f db3d
000001a0: e982 20be 63ab 493e a5eb 1a3d ff1d 053f
000001b0: 88ea 563e e492 893d e6f5 45be 21fe 893e
000001c0: a6f7 a83e 96ff 7c3e b87e ebbc 4769 99bd
000001d0: ae86 6ebd b394 ce3d aded 85bc 3799 7f3d
000001e0: 1ebf 8abd 4d69 d53d 0a98 c53c a6c7 80bd
000001f0: e29c d4bd 818d 6f3e 1c5f 5a3e e35d 80bd
00000200: 8321 c6bd e14b 67bd 10ad 63bd dcf0 77bd
00000210: b4aa ebbd 39de b43a 04e6 14bd cc66 f6bd
00000220: a5a3 c6bd 62bd 99bd 94db 5cbd f82e 9ebd
00000230: 7463 ecbc 547b 373d 322f cfbd f070 2fbc
00000240: 2c59 13bd 8bf1 93bd a060 e3bc 60fa 9cbd
00000250: 60ad 833b 2acb b8bd b172 873c b80a eb3d
00000260: 13d1 c23d 1df7 83bd 0e53 683c e6f8 f1bd
00000270: b1cb a53d de1e ffbd f986 f5bd f15b f6bd
00000280: 15c3 06be 20ae 8a3c 3493 29bd 638b b53b
00000290: 7a28 01bd 40f9 2fbb 710a 79bd 2ae2 97bd
000002a0: 6256 d6bd f3d7 1e3d f2b2 94bd 8842 d0bc
000002b0: 9303 153d cb23 62bd cc17 01bd 48a9 aabd
000002c0: 3b0a ecbd 1b35 143d f95e 56bd 5cf9 a03d
000002d0: 13dc 77b9 0550 babc 5ee6 0bbe 00dd 343b
000002e0: c1db 39bd 1815 92bd d16e 36bd 81bf 16bc
000002f0: 38e4 c0bd 1de7 a83b a437 803d d049 ca3c
00000300: d332 153e 64ce aa3d f9bf c0be fb38 94be
00000310: 0b9e f33d 4c23 9abc 18b1 06bd 9514 323f
00000320: b492 7ebd 229c d2bc 4947 dabe e16c 40be
00000330: a97b 073d bb00 963d 9209 773e c590 68be
00000340: 26e4 2cbd 957f 8abd ef25 083d 224a 3abc
00000350: 3e97 8bbd 382c debc 856b f7bd e511 34bd
00000360: 2f0b f9bd bcc9 2c3e 418c 343e b112 833c
00000370: 9042 523d 8fe6 35bc 4a83 fbbd 4a30 e4bd
00000380: c38a a63e cacd 9b3d 4482 85be f6b9 87be
00000390: 861b bb3d 2397 2e3e 1aa1 223e 3b4f a8be
000003a0: 3ecb e53d f0f9 833e e70d 9abd 7620 adbd
000003b0: 4f07 cc3d 4a93 d63d 8a11 f23e 3896 00bf
000003c0: 45e9 9ebe 077e fabd 1213 19bf 5d70 a53d
000003d0: e479 f7bc e021 943b 2ad2 343d 2df3 85bd
000003e0: 0443 e93c 4677 13be 5af6 633e f547 adbe
000003f0: 111c 04be 8be7 c13e 6fa8 6dbc 131c 9abe
-0.25702798 0.08510323 0.22976455 0.012925512 0.08196091 0.003065117 -0.020509642 0.062331323
0.2531227 0.057905212 0.3883825 0.07229137 0.45378527 -0.27143353 0.25596976 -0.2364823
0.15339576 0.16787168 0.16652496 0.03125759 0.10635155 0.0810124 0.23623936 0.03808812
0.07862283 0.0697633 -0.32979864 0.15450627 0.042838767 0.08969969 -0.1587342 0.12578852
-0.0072243735 -0.24129198 -0.13260664 -0.3841445 -0.08646795 0.15778677 -0.014279271 0.04582832
0.1326664 -0.036505695 0.05199724 0.096685596 -0.10599769 -0.19753636 0.08084025 -0.18675134
0.076277986 0.036703277 -0.056792323 0.011298511 0.115573965 0.28606644 -0.0067916904 0.23720966
0.02979492 0.04455618 0.08403389 0.033917263 0.3071785 0.05861457 -0.15983464 -0.150124
-0.0627609 0.19283211 0.0983435 -0.17627849 -0.013183736 0.19255173 -0.13093507 0.19956534
0.07979385 -0.31617656 0.24913943 -0.14385219 -0.1455691 -0.06696326 -0.16024765 0.16528128
0.17017427 -0.0801117 -0.06340092 0.17780198 -0.1834783 0.11426374 0.34280434 0.21162608
0.12569302 0.069493316 -0.047919214 -0.048480634 0.0127579 -0.1356406 -0.050581068 0.0047058677
0.3071782 -0.015114669 -0.023656506 0.15462391 0.15262964 0.24319431 -0.041570842 0.106962636
-0.15674938 0.19694285 0.037822384 0.51998895 0.20987904 0.0671747 -0.19332084 0.26951697
0.3300144 0.24706873 -0.028746948 -0.07490783 -0.05823391 0.10086956 -0.016348684 0.062401976
-0.06774734 0.10420475 0.02412035 -0.0628808 -0.103814855 0.23393823 0.21325344 -0.062679075
-0.096743606 -0.05646885 -0.055584967 -0.060532436 -0.115071684 0.0013799138 -0.036352172 -0.12031326
-0.096991815 -0.07506825 -0.053920344 -0.07723802 -0.028856017 0.04479535 -0.10116424 -0.010708079
-0.035973713 -0.07223805 -0.027756035 -0.07664943 0.0040184706 -0.090231255 0.016534181 0.11476654
0.09512534 -0.064436175 0.014179958 -0.11815052 0.08095492 -0.12457059 -0.119886346 -0.12029255
-0.13160355 0.016928732 -0.04140015 0.005540298 -0.031532742 -0.0026851445 -0.060800973 -0.07416184
-0.10465695 0.038780164 -0.072606936 -0.02542235 0.03638036 -0.055209916 -0.031516835 -0.08333069
-0.11525389 0.036183458 -0.052336667 0.078600615 -0.0002363774 -0.022743234 -0.13662097 0.0027597547
-0.04537559 -0.071329296 -0.044539277 -0.0092009315 -0.09418529 0.005154504 0.062606126 0.0246934
0.14570169 0.08340147 -0.37646464 -0.28949723 0.11895379 -0.018815659 -0.032883734 0.69562656
-0.062151626 -0.025709216 -0.4263251 -0.18791534 0.033076916 0.07324358 0.24124745 -0.22711475
-0.042209767 -0.067626156 0.0332393 -0.011370214 -0.068159565 -0.027120695 -0.120810546 -0.043962378
-0.12160336 0.1687383 0.17631628 0.016000124 0.05133301 -0.011102333 -0.12280901 -0.11142023
0.32527742 0.076076105 -0.26075947 -0.26509064 0.09136109 0.17049842 0.15881768 -0.32872948
0.11220406 0.25776625 -0.07522183 -0.08453457 0.099623315 0.10477312 0.47279006 -0.50229216
-0.31037346 -0.12231069 -0.59794724 0.08078072 -0.03020949 0.00452064 0.04414574 -0.06540523
0.028474338 -0.14400968 0.22261944 -0.3384396 -0.12901331 0.37871966 -0.01450549 -0.30099544

fcs.2.bias f4 [32]
00000000: f2e8 2abc b03b d43e c9c1 61bd 47fc b2bc
00000010: 7f8d c0bd 7a03 013e 0794 893e 9ccf cebc
00000020: b325 b8bd dc55 d53d 913c b23c 3881 bf3d
00000030: 7b9e 303d 1b7e 303e 6c1c adbd a0a5 8e3d
00000040: 27d7 7d3b 9530 61be 25e0 bf3d f732 2fbd
00000050: 20ec 673e 4ca9 eabc f591 4d3d bd15 11bd
00000060: d75e 0e3b e3be 16bc 042b e9bd 8880 d43e
00000070: 1e03 b3bd ab54 323e 906d acbd 2345 27be
-0.010431515 0.41451788 -0.05511645 -0.02184881 -0.09401988 0.12598982 0.26870748 -0.02524548
-0.089915656 0.10416767 0.021757396 0.093508184 0.04311989 0.17235605 -0.08452687 0.06965184
0.0038732977 -0.21991189 0.09368924 -0.042773213 0.22648668 -0.02864518 0.050188024 -0.035421122
0.002172401 -0.009200784 -0.11385158 0.41504312 -0.08740829 0.17415111 -0.08419335 -0.16334967

out.weight f4 [4, 32]
00000000: cc50 70bc 48ab 693e 3bc1 e73d 6d54 803e
00000010: 4bd8 013e 2158 3d3e 7e17 5a3e 14c1 553d
00000020: ef83 74be 91e0 c1be 558e ecbd 8755 153d
00000030: 5071 c93d 308f aabe 365c 85bc fb2f ab3e
00000040: fac3 f8bd efd6 7bbe 4605 c93e 234a 463c
00000050: ebd2 3e3d 72c4 e7bd 4f1a 633e d5ed b1be
00000060: 2d66 903d 2ccd 79bb f30e 653e 96ef 953e
00000070: 8f54 c2be 802b 793d e5c4 c2bd 7d19 fcbc
00000080: 8695 f8bd 60ad d73d 3bb3 333e 18d3 733e
00000090: 7e50 963d f0d1 a73d 3fbe 893e dedd 0a3e
000000a0: c715 76be 5110 42bd 75e9 22be 3f66 52be
000000b0: 9f47 e63d 85f7 a0bd 8d8c 523e 1d3d 823e
000000c0: f61a 493d a217 72be f90e a33e 0c15 0e3e
000000d0: 99ea 7b3e 7cfe 41be 6630 593e 5338 1abd
000000e0: d8db 9b3e 6e28 f23d 83c4 953e ab00 013e
000000f0: e8d5 bb3d fe2b 133e cd03 1b3e b324 643d
00000100: 9243 abbe bf25 803e 3dc1 113e 1e29 6c3e
00000110: f635 b13d ff2e 8e3e f1b8 803e c918 29be
00000120: 3ad5 42be f9d7 dbbd 426e 26be 6c1d f7be
00000130: 4745 1abe e599 78be 3b4e 473d 63ff 923e
00000140: bef0 5b3e 8962 4b3d 72e5 1ebe 90a5 91bd
00000150: 3854 b93d 3bd7 f4be 5e0c 313d d00b 6f3e
00000160: 3ab2 c23e c921 5cbe d378 adbc 2684 ea3d
00000170: 2356 8cbe 2a8d 863e 9c01 383e ef12 f7bd
00000180: 0c2a 85bd 7c6b 793e bab1 cebd d12c ca3e
00000190: a15f 8ebd e747 30be ae2d b03d bfb2 2c3e
000001a0: ecfc ecbe 99dc 95bd cb25 0d3e 93d4 45be
000001b0: c135 133e a81b 70be 0d16 6bbe 17ec af3d
000001c0: 0681 1b3e 4bc7 303e 1d6a 813c 9459 50bd
000001d0: 4563 2d3e 7643 393e 7529 8a3e 2df0 dabe
000001e0: ed52 013e 0a7f 073f 1168 0bbf 30b2 883e
000001f0: e01d 8ebe a04d b33e 5cf9 583e 97b5 9fbd
-0.014667701 0.22819245 0.11316153 0.25064412 0.12680165 0.1849065 0.21298024 0.052186087
-0.23878454 -0.37866643 -0.11550585 0.03645852 0.09836066 -0.33312368 -0.016279321 0.33435044
-0.121467546 -0.2459371 0.39261836 0.0121026365 0.046587866 -0.11316766 0.22178005 -0.34751764
0.070507385 -0.0038116677 0.22368984 0.29284352 -0.37955138 0.0608325 -0.09510211 -0.030773873
-0.12137894 0.105311155 0.1754884 0.23810995 0.073395714 0.08194339 0.2690296 0.13561198
-0.24031745 -0.04737884 -0.1590937 -0.20546816 0.112441294 -0.078597106 0.20561428 0.2543725
0.049097978 -0.23641828 0.3184736 0.13875216 0.2460121 -0.18944734 0.21209869 -0.03765137
0.30441165 0.118241176 0.2925149 0.12597911 0.09171659 0.1437225 0.15138169 0.05569906
-0.3344999 0.25028798 0.14233871 0.2306256 0.0865287 0.2777023 0.251411 -0.16513361
-0.19026652 -0.10734553 -0.16252998 -0.48264635 -0.1506549 -0.24277456 0.04865859 0.2871047
0.21478555 0.049654517 -0.15517214 -0.07111657 0.090492666 -0.47820458 0.043224685 0.2334435
0.380266 -0.21497263 -0.021175778 0.114509866 -0.27409467 0.26279575 0.17969364 -0.12064158
-0.065021604 0.24357408 -0.100924924 0.39487317 -0.069518335 -0.17214929 0.08602463 0.16865061
-0.46286714 -0.07317466 0.13783948 -0.19319372 0.14375974 -0.2344805 -0.2295763 0.085899524
0.15185937 0.17263524 0.015797669 -0.05086668 0.169324 0.1809214 0.26984754 -0.42761365
0.1262929 0.5292822 -0.5445567 0.26698446 -0.27757168 0.3502016 0.21188873 -0.077983074

out.bias f4 [4]
00000000: 151d 993e b951 b23e a293 903e 6312 9a3e
0.29905 0.34827974 0.28237635 0.30092153
