p1_navigation/2checkpoint.pth (torch_old, 15113 bytes, 8 tensors)

fcs.0.weight f4 [32, 37]
0	0xbca2d29a	-0.019875813
1	0x3d68444c	0.056705758
2	0x3c822398	0.015886113
3	0x3d989e97	0.074521236
4	0x3dc6f383	0.09714415
5	0x3e07192c	0.13193196
6	0x3db4a986	0.088213965
7	0x3dc55ab6	0.09636442
8	0x3db3ce42	0.08779575
9	0xbdaa2c45	-0.08309225
10	0x3ea53786	0.32268924
11	0xbec3367d	-0.3812751
12	0xbee7e92e	-0.4529509
13	0xbe9dd139	-0.30823687
14	0xbfc536fb	-1.5407404
15	0x3d8138a5	0.06309632
16	0x3d900abe	0.07033299
17	0x3d0613f9	0.03273389
18	0x3dcf24d5	0.10114447
19	0x3dc71bc6	0.09722094
20	0x3ce315cd	0.027720356
21	0x3e47f9df	0.19528912
22	0x3decdd59	0.11565656
23	0x3d0e38ba	0.034722067
24	0xbdde7e19	-0.10863895
25	0x3b5a696d	0.0033326999
26	0x3d13ed2d	0.03611486
27	0x3cd5be3b	0.026091686
28	0xbbb63ecf	-0.0055616866
29	0x3b9e08ed	0.0048228414
30	0x3c34fca1	0.01104656
31	0x3c7e4ba1	0.015520961
32	0x3d653672	0.055960126
33	0x3dac0646	0.08399634
34	0x3d912e37	0.07088893
35	0xbd09a295	-0.033602316
36	0xbbc8fdf0	-0.0061337873
37	0x3dafadba	0.085780576
38	0x3e216d1d	0.1576428
39	0x3d98c7e8	0.07460004
40	0x3e0ae086	0.13562211
41	0x3cbb055b	0.022829702
42	0x3cbbbd2b	0.02291735
43	0xbd10ac27	-0.035320427
44	0x3bb44bed	0.005502215
45	0x3c9aa97e	0.018879648
46	0x3cd6f794	0.026241101
47	0xbd135494	-0.03596933
48	0x3e0e77b7	0.13912855
49	0x3e31ba90	0.17356324
50	0x3e1de787	0.15420352
51	0x3e7ec79d	0.24880834
52	0x3d451c42	0.048122652
53	0x3cd92c4f	0.026510386
54	0x3d888726	0.066664025
55	0xbcc38a10	-0.023869544
56	0xbd7d71eb	-0.06187622
57	0x3e86f65b	0.2635983
58	0xbf220cde	-0.63300884
59	0xbf0c4665	-0.54794914
60	0xbf066f58	-0.5251365
61	0xc00b8b90	-2.1803932
62	0x3cd357b8	0.025798663
63	0x3d305e45	0.043058652
64	0x3d87deca	0.066342905
65	0x3d472d58	0.048627228
66	0xbb184b2e	-0.002323817
67	0x3d35939d	0.044330228
68	0x3e2b18d3	0.16708688
69	0x3dc4bcdf	0.09606337
70	0x3d9db260	0.07700038
71	0xbc8b1895	-0.016979495
72	0xbc8594c1	-0.016306283
73	0xbb19dd39	-0.0023477806
74	0x3db6e547	0.0893045
75	0xbda7da29	-0.081959076
76	0x3db9b09f	0.09066891
77	0x3e07ce53	0.132623
78	0x3d5df1dc	0.054185733
79	0xbf12281b	-0.57092446
80	0x3e882a31	0.2659469
81	0x3eb60e9f	0.3555803
82	0x3e01571c	0.12630886
83	0xbeb0fa5b	-0.34566006
84	0xbd4afce0	-0.049557567
85	0xbd2a632e	-0.04159849
86	0x3d3d247f	0.046177384
87	0xbc3256ce	-0.010884954
88	0x3d32ad06	0.04362204
89	0xbe1338d7	-0.14377151
90	0x3d85b1b3	0.06528034
91	0x3de21ecd	0.11041031
92	0x3e181141	0.14850332
93	0x3e80b5fb	0.2513884
94	0xbd62825e	-0.05530011
95	0xbde27ebb	-0.11059328
96	0xbd8cd540	-0.06876612
97	0x3dbf4038	0.09338421
98	0x3d1cb9f3	0.038263272
99	0xbf3e1981	-0.74257666
100	0x3ea937e7	0.33050463
101	0x3e7f98f2	0.24960688
102	0xbdaa9305	-0.08328823
103	0xbea85ee8	-0.32884908
104	0xbec7d6bd	-0.3903102
105	0x3d1d6a75	0.038431603
106	0x3d42b821	0.04753888
107	0xbdeb3bbd	-0.114860035
108	0xbd69508a	-0.056961574
109	0x3cb56d5b	0.022146871
110	0x3c983961	0.018582048
111	0x3e907998	0.2821777
112	0xbd57eef4	-0.052718118
113	0xbcc433d9	-0.023950504
114	0xbda58ffe	-0.08084105
115	0xbf6854a5	-0.9075416
116	0xbe867dd6	-0.2626788
117	0x3e7a9fb2	0.24474981
118	0x3e419481	0.18904306
119	0xbd3ec2a4	-0.046572343
120	0xbeb33e63	-0.35008535
121	0x3d232d25	0.039837975
122	0x3d9361cb	0.07196387
123	0x3de793c2	0.113074794
124	0xbcd0949b	-0.025461486
125	0xbe62c38c	-0.22144908
126	0xbe8dbcda	-0.27683145
127	0xbe3b7011	-0.18304469
128	0x3b380f1b	0.0028085175
129	0x3d3c3851	0.045952145
130	0x3b8781a2	0.0041353265
131	0x3d8ef7c0	0.06980848
132	0xbc63527d	-0.013874647
133	0x3d762567	0.060094263
134	0xbe60f225	-0.21967371
135	0xbea8ae70	-0.32945585
136	0xbe5cfac7	-0.21580039
137	0x3e6a731e	0.22895476
138	0x3e1e4cb4	0.15458947
139	0x3dd125d2	0.10212292
140	0xbd6779c1	-0.056512598
141	0xbcc738ce	-0.024319079
142	0x3e6cb102	0.23114398
143	0x3e5fee15	0.21868165
144	0xbe4ed007	-0.20196544
145	0xbf0db862	-0.5535947
146	0x3d2ce501	0.042210583
147	0x3c085547	0.008321113
148	0xbcffcf8e	-0.0312269
149	0xbd455e83	-0.048185837
150	0xbc874473	-0.016512131
151	0xbbc662e4	-0.006054269
152	0x3d0bf828	0.034172207
153	0x3ec89748	0.39177918
154	0x3e14d0f9	0.14532842
155	0xbea38eeb	-0.31944975
156	0xbe9bbfda	-0.3041981
157	0xbf5ead07	-0.8698277
158	0x3cbac4b9	0.022798883
159	0x3c903043	0.017601138
160	0x3db91503	0.09037211
161	0xbc0f827d	-0.008759138
162	0x3da363a5	0.0797799
163	0x3ce12b45	0.027486453
164	0xbd5bb811	-0.053642336
165	0x3cd0d46a	0.025491912
166	0x3d08631d	0.033297647
167	0x3cf51fac	0.029922329
168	0x3d44682a	0.0479509
169	0x3cd5725d	0.02605551
170	0x3dc1db8c	0.09465703
171	0x3dd91caf	0.10601174
172	0x3e61c632	0.22048262
173	0x3ea546e5	0.3228065
174	0xbd8691d2	-0.06570782
175	0x3dadc420	0.084846735
176	0xbdbadde5	-0.09124354
177	0xbf37a00d	-0.71728593
178	0x3dd48a01	0.10377885
179	0x3db11310	0.08646214
180	0x3d5f9dfd	0.05459403
181	0x3e271dd5	0.16319974
182	0x3ed9dbea	0.42550594
183	0x3c92ea56	0.017934006
184	0xbb211de0	-0.0024584457
185	0xbe119d80	-0.14220238
186	0xbdbc8462	-0.092049375
187	0xbd7eaeeb	-0.062178534
188	0xbd256fc6	-0.0403898
189	0xbd1c42f4	-0.03814979
190	0x3b76d59f	0.003766395
191	0xbe139068	-0.14410555
192	0xbce54e59	-0.02799146
193	0xbcbd4c9f	-0.023107825
194	0x3e1fa0ed	0.15588732
195	0xbe14e09a	-0.14538804
196	0x3b6794a7	0.0035336406
197	0x3c23b682	0.009992244
198	0xbe8e3395	-0.2777373
199	0xbceb7791	-0.028743537
200	0xbe3890c4	-0.18023974
201	0xbd786847	-0.06064632
202	0x3d7a7481	0.061146263
203	0xbe2a493e	-0.16629502
204	0x3daf6842	0.085648075
205	0xbdb979b4	-0.09056416
206	0x3e02c2a7	0.12769566
207	0x3e638cb5	0.22221644
208	0x3dbdd1f9	0.09268565
209	0x3e74c7e7	0.23904382
210	0xbd721554	-0.05910237
211	0x3d368916	0.04456433
212	0xbd7eedd6	-0.062238537
213	0xbe90c078	-0.28271842
214	0xbe801137	-0.25013134
215	0xbdeca354	-0.1155459
216	0x3d7cd66f	0.061727937
217	0x3ca6d09c	0.020363145
218	0xbdd12c2f	-0.102135055
219	0xbed08a0d	-0.40730324
220	0xbde84a0d	-0.11342249
221	0x3daa5f01	0.08318902
222	0x3e1097cf	0.1412041
223	0x3e0b3893	0.135958
224	0x3d37c9c8	0.044870168
225	0xbd87d311	-0.066320546
226	0xbe645053	-0.22296266
227	0x3e72ca6e	0.23710033
228	0xbcdc9d25	-0.026930401
229	0xbdcbeb12	-0.099569455
230	0xbdbfa59a	-0.09357758
231	0xbebba383	-0.36648187
232	0x3d9d90f7	0.076936655
233	0x3e0a3b3c	0.13499159
234	0x3e4726ab	0.19448344
235	0x3e188a06	0.14896402
236	0x3e4f2d51	0.2023213
237	0x3c8d085c	0.0172159
238	0xbe0ed0e9	-0.1394688
239	0x3bd9ffb8	0.0066527985
240	0xbc3730f3	-0.011181104
241	0xbdbf2277	-0.093327455
242	0x3c82e157	0.015976591
243	0xbb3b6c99	-0.0028598665
244	0x3b4f34a6	0.0031617074
245	0x3e315b74	0.17320043
246	0x3e9a5253	0.30140933
247	0xbe57ce0b	-0.21074693
248	0xbd8dd4fb	-0.069253884
249	0x3de253a1	0.11051107
250	0x3e49118b	0.19635598
251	0x3f253e5a	0.64548266
252	0x3e491aad	0.19639082
253	0x3dca265a	0.09870596
254	0x3c3f96ef	0.0116937
255	0xbda67b0f	-0.0812894

fcs.0.bias f4 [32]
0	0xbdc58984	-0.0964537
1	0xbd8a2656	-0.06745593
2	0xbdfdf3cc	-0.12400016
3	0x3e7bf079	0.24603452
4	0x3e8bc8db	0.27301678
5	0xbe34c928	-0.1765486
6	0x3d9bf233	0.07614555
7	0x3d248039	0.040161345
8	0x3ddac7be	0.10682629
9	0x3d9fbf86	0.07800202
10	0x3d70d983	0.058801185
11	0xbd66dbd5	-0.056361992
12	0x3e284c21	0.16435291
13	0x3c12da06	0.008963114
14	0x3db1ca87	0.08681207
15	0xbb763d0b	-0.0037573006
16	0x3ba81482	0.005129398
17	0x3e50fee2	0.2040973
18	0x3da89dd1	0.08233226
19	0xbe202cfa	-0.15642157
20	0xbe1904f5	-0.14943297
21	0xbdcf529b	-0.101231776
22	0xbe1be72f	-0.15224908
23	0x3e3db7ed	0.18527193
24	0x3c38cb71	0.011278973
25	0xbd4f9671	-0.05068058
26	0x3ccfb1b2	0.025353286
27	0x3d2976a8	0.041372925
28	0x3e02d3c8	0.127761
29	0xbd85b029	-0.065277405
30	0xbdc7c316	-0.097540066
31	0xbdc85efe	-0.09783743

fcs.1.weight f4 [32, 32]
0	0x3e532566	0.20619735
1	0x3f096ad2	0.5367862
2	0xbd7ff569	-0.0624899
3	0xbc9c0fb0	-0.01905045
4	0x3d5eac60	0.05436361
5	0xbdbca33a	-0.092108205
6	0xbe57bec7	-0.2106887
7	0xbc822e75	-0.015891293
8	0x3d762077	0.060089555
9	0x3d162c7a	0.03666351
10	0x3cb35e29	0.021895485
11	0xbd6d8e16	-0.05799683
12	0x3dbb46c1	0.091443546
13	0xbf194ed5	-0.59885913
14	0x3de675f5	0.11252967
15	0x3eaffeaf	0.34373996
16	0xbda36dad	-0.07979903
17	0xbe2a0c38	-0.16606224
18	0x3e0658fc	0.13119882
19	0xbd1e475d	-0.038642276
20	0x3de1eb0f	0.11031162
21	0xbe8fd5ba	-0.28092748
22	0x3d800f1f	0.06252884
23	0x3d1c256e	0.038121633
24	0xbe67393d	-0.22580428
25	0x3d14183b	0.03615592
26	0xbd941717	-0.072309665
27	0xbe0cf1fe	-0.13764188
28	0xbdd1a534	-0.10236588
29	0xbe9a0257	-0.3007991
30	0xbeb96a49	-0.36213902
31	0xbeaad1b8	-0.33363128
32	0xbdcca900	-0.09993172
33	0xbe7f9cbc	-0.24962133
34	0xbdf9fb87	-0.12206178
35	0x3ec68ef2	0.38780934
36	0xb8269acb	-3.9721646e-05
37	0xbe41dc83	-0.18931775
38	0x3eb7288b	0.3577312
39	0xbe664ef6	-0.22491059
40	0x3e360122	0.1777387
41	0xbe467dc6	-0.19383916
42	0x3d98aaee	0.07454477
43	0x3dc59191	0.09646905
44	0xbdd805df	-0.10547995
45	0x3e0e18fb	0.13876717
46	0xbe228bb1	-0.158736
47	0xbdc284ae	-0.09497963
48	0xbd7d873f	-0.06189656
49	0x3d0690eb	0.03285305
50	0x3d5b8eef	0.05360311
51	0x3c9f9244	0.019478925
52	0xbe1d32ad	-0.15351363
53	0x3da222ec	0.07916817
54	0x3de3362b	0.11094316
55	0x3e67dc8a	0.22642723
56	0xbe8b324f	-0.2718682
57	0xbdd5122d	-0.104038574
58	0x3f0f3e1d	0.5595415
59	0x3e199138	0.14996803
60	0x3c8b6331	0.017015072
61	0x3dd6d6f9	0.104902215
62	0x3e4a4aec	0.19755143
63	0x3d833469	0.06406481
64	0xbe905d71	-0.2819629
65	0xbec2a07e	-0.3801307
66	0xbe91194f	-0.2833962
67	0x3d3c0062	0.045898803
68	0x3db38554	0.08765665
69	0xbe131339	-0.14362802
70	0xbed012b2	-0.40639263
71	0x3ea70f6f	0.32628962
72	0xbea32438	-0.3186357
73	0xbf0f089b	-0.55872506
74	0xbde91aa4	-0.113820344
75	0xbea0c71c	-0.31401908
76	0xbe8a98d8	-0.27069736
77	0xbe704de0	-0.23467207
78	0xbe820875	-0.25397077
79	0xbeb8cba8	-0.36092877
80	0x3e4446db	0.19167654
81	0xbe37e1cd	-0.1795723
82	0xbe16591f	-0.14682434
83	0xbf5979f4	-0.8495171
84	0xbdc51fc4	-0.096251994
85	0x3e01afa1	0.12664653
86	0xbe2a1aa3	-0.16611724
87	0x3e7631e6	0.24042472
88	0x3ea5b7c3	0.32366762
89	0x3bedb60e	0.0072543686
90	0xbe0271be	-0.12738702
91	0x3de51343	0.111853145
92	0x3e3fa06a	0.18713537
93	0xbe07e70b	-0.1327173
94	0x3e4781ba	0.1948308
95	0xbea2fcc5	-0.31833473
96	0xbcdfaac2	-0.027303103
97	0xbeca5878	-0.3952062
98	0xbe2f1cf5	-0.1710089
99	0x3d7b0cbe	0.06129145
100	0xbe98925c	-0.29799163
101	0xbe1659a9	-0.1468264
102	0x3e7e3581	0.24825098
103	0x3dc919f0	0.098194
104	0x3de3b275	0.11118022
105	0x3e04084f	0.12893794
106	0xbde0c39c	-0.109748095
107	0xbc529fa7	-0.012855447
108	0xbe1fbdf6	-0.15599808
109	0x3eee6915	0.46564546
110	0x3bf832a8	0.007574398
111	0xbecec31a	-0.40383226
112	0xbdc2897f	-0.094988815
113	0xbdd45c83	-0.10369208
114	0xbeb230c8	-0.34802842
115	0xbe2ce2e6	-0.1688343
116	0x3e5755a3	0.21028762
117	0xbc6d65a1	-0.014489562
118	0xbdb7da76	-0.08977215
119	0xbd2aee01	-0.041730884
120	0x3dae2d5b	0.085047446
121	0xbe47e235	-0.19519885
122	0xbd4081e9	-0.046998892
123	0xbdf6ad40	-0.120447636
124	0xbea1231d	-0.31472102
125	0x3d2c9eee	0.042143755
126	0xbd284fa5	-0.04109158
127	0x3d206288	0.039156467
128	0xbe108592	-0.14113453
129	0xbed5550f	-0.41666457
130	0xbd1fe44a	-0.039036073
131	0xb98c0608	-0.00026707374
132	0x3d1e787a	0.038689114
133	0x3e1e8cb5	0.15483363
134	0xbe15c8c6	-0.1462737
135	0x39f7366d	0.00047152062
136	0x3db3db8d	0.0878211
137	0x3dd61c89	0.104546614
138	0xbd80275e	-0.06257509
139	0x3e66f6f3	0.22555141
140	0x3d7046c4	0.058661237
141	0xbe8e6a92	-0.27815682
142	0xbd4c699c	-0.049905404
143	0xbde6b5b4	-0.11265126
144	0xbdae1b20	-0.085012674
145	0x3e88e8fc	0.26740253
146	0xbe1cecf7	-0.1532477
147	0x3dda30c6	0.10653834
148	0xbbe3e0f5	-0.006954307
149	0x3e701153	0.23444109
150	0x3e059225	0.13044031
151	0xbe5210bd	-0.20514198
152	0xbe5c045f	-0.21486042
153	0xbcaecf40	-0.021339059
154	0xbeaa4c1e	-0.33261198
155	0x3ec86553	0.39139804
156	0x3dd74830	0.105118155
157	0xbe27ccdb	-0.1638674
158	0x3da97c9e	0.08275722
159	0xbe636a16	-0.22208437
160	0x3e19f641	0.15035345
161	0x3e83ffa2	0.2578097
162	0xbe19b85c	-0.15011734
163	0xbe28cdaf	-0.16484712
164	0x3e8ac67d	0.2710456
165	0xbd0f9327	-0.035052445
166	0x3d147c0c	0.036251113
167	0x3db6422f	0.08899342
168	0x3dc989e7	0.09840756
169	0x3e20a4e8	0.15687907
170	0x3c9ee3c1	0.01939571
171	0x3bb90f4d	0.005647576
172	0x3d960d60	0.0732677
173	0x3f1aadc9	0.60421425
174	0xbd6d63ce	-0.05795651
175	0x3e0bf329	0.13666977
176	0x3dd637c5	0.10459856
177	0xbe03d0a6	-0.12872562
178	0x3d14179d	0.036155332
179	0xbe904bae	-0.2818274
180	0x3d802abb	0.0625815
181	0xbd929d82	-0.071589485
182	0xbcabf93b	-0.020992866
183	0xbdcffff2	-0.101562396
184	0x3db4bbee	0.08824907
185	0x3d05aedd	0.032637466
186	0xbe855378	-0.26040244
187	0xbe95859c	-0.29203498
188	0x3dbf125c	0.09329674
189	0x3e983ee2	0.29735476
190	0x3e51225e	0.20423266
191	0xbd701960	-0.05861795
192	0xbea37f3b	-0.31933007
193	0xbe29f07c	-0.16595644
194	0xbe167c65	-0.1469589
195	0x3d3f86de	0.04675948
196	0xbd17fea6	-0.037108086
197	0x3e092b24	0.13395363
198	0x3e062c97	0.13102947
199	0xbd1beed0	-0.038069546
200	0x3da76b79	0.08174796
201	0x3e176f13	0.14788465
202	0xbc628e43	-0.013827863
203	0xbe28b2ae	-0.16474411
204	0x3e58fbfb	0.21189873
205	0xbea595fd	-0.32340994
206	0x3df045a3	0.11732032
207	0xbf1a3495	-0.60236484
208	0xbde0cbe6	-0.109763905
209	0x3e1e646e	0.15467998
210	0xbdc8a351	-0.09796775
211	0xbde91515	-0.11380974
212	0xbe53113c	-0.20612043
213	0xbd82ba3f	-0.0638318
214	0xbc7c235d	-0.015389291
215	0xbea4e24e	-0.32203907
216	0x3e04d3cb	0.12971418
217	0xbdccbbe9	-0.099967785
218	0xbeedc556	-0.46439618
219	0x3e41e395	0.18934472
220	0x3dd73384	0.10507873
221	0xbeab4e9d	-0.33458415
222	0xbc71da15	-0.014761467
223	0x3dcbbae5	0.09947757
224	0x3ecb8a8e	0.39754146
225	0xbdf4c459	-0.11951513
226	0xbc8b8ae2	-0.017033998
227	0xbb90d13e	-0.004419475
228	0xbdf5b3e1	-0.119972
229	0xbdcc20b7	-0.09967177
230	0xbea90f9f	-0.3301973
231	0x3dc9513a	0.09829946
232	0xbe8fe753	-0.28106174
233	0xbe857bb2	-0.26070935
234	0x3d2d5de4	0.04232587
235	0xbcf082ed	-0.029359305
236	0x3cb8238e	0.022477891
237	0xbe2a2427	-0.16615354
238	0xbd586a21	-0.052835587
239	0xbe8ccbb2	-0.27499157
240	0x3e0ad227	0.1355673
241	0x3d01c9d5	0.031686623
242	0xbe7c26d3	-0.24624185
243	0x3e3197f4	0.17343122
244	0xbeb7d029	-0.35901
245	0xbe9cdc33	-0.3063675
246	0x3dea54a9	0.11441929
247	0xbd44c591	-0.048039977
248	0xbcc147cd	-0.023593808
249	0xbe2ec4f4	-0.17067319
250	0x3d504202	0.0508442
251	0x3d8b7f72	0.06811418
252	0x3e94944b	0.2901939
253	0xbdf757fc	-0.120773286
254	0x3e545a51	0.20737578
255	0x3e878ec9	0.26476124

fcs.1.bias f4 [32]
0	0x3d012b7e	0.031535618
1	0xbdd1df2b	-0.10247644
2	0xbc5356b0	-0.012899086
3	0xbdaac741	-0.08338786
4	0x3da6351b	0.08115598
5	0x3e229c5a	0.15879956
6	0x3b49baf8	0.0030781608
7	0x3dd7a3f5	0.10529319
8	0x3d85aa48	0.06526619
9	0xbddc8737	-0.10767978
10	0x3e02fbad	0.12791319
11	0x3e514687	0.2043706
12	0x3dcf1413	0.10111251
13	0x3d9ea0b0	0.077454925
14	0x39b12c87	0.00033793246
15	0x3dedde9a	0.116147235
16	0x3e82791b	0.2548302
17	0x3c2d3a32	0.010572957
18	0x3dacfb10	0.08446324
19	0x3d816bfb	0.06319424
20	0x3cf7ea4d	0.03026309
21	0x3d4d8f86	0.050185703
22	0x3e0dad54	0.1383565
23	0x3da624bc	0.08112475
24	0x3d75700d	0.059921313
25	0xbddf33e5	-0.1089857
26	0x3c6e6517	0.014550469
27	0x3e36fac3	0.17869096
28	0xbe06e9e7	-0.13175164
29	0xb945c6f0	-0.00018861494
30	0x3df81fb8	0.12115425
31	0x3d4dc18d	0.050233413

fcs.2.weight f4 [32, 32]
0	0x3cff7fd1	0.031188877
1	0x3d2bd7d3	0.041953873
2	0x3b7fb480	0.0039017498
3	0x3dcf9dfe	0.101375565
4	0xbcad5654	-0.021159329
5	0xbe129277	-0.14313684
6	0x3d7d7b77	0.061885323
7	0x3d07f9c0	0.033197165
8	0x3d97962d	0.07401691
9	0xbca0d920	-0.019634783
10	0xbd7e2e1c	-0.062055692
11	0xbd566256	-0.052339874
12	0x3d3eed3c	0.046612963
13	0xbdf5bf8e	-0.11999427
14	0xbe28b884	-0.16476637
15	0x3d2efaf6	0.042719804
16	0xbdf11951	-0.11772407
17	0xbc73a540	-0.014870942
18	0x3d48bc24	0.04900755
19	0x3c1210a0	0.0089150965
20	0x3db0d112	0.08633627
21	0x3cbdd448	0.023172513
22	0x3cef0859	0.029178785
23	0xbc81a028	-0.015823439
24	0xbbe2ab33	-0.006917381
25	0x3c156787	0.009118921
26	0x3df6fcee	0.12059961
27	0xbe2b849b	-0.16749804
28	0xbdbc66a9	-0.09199268
29	0xbe44d94d	-0.19223519
30	0xbd9057be	-0.070479855
31	0x3ded49c5	0.11586336
32	0xbe6391a6	-0.22223529
33	0x3e16d562	0.14729837
34	0x3e941988	0.2892573
35	0x3d88d89a	0.066819385
36	0xbcb88555	-0.022524515
37	0x3cb3f5e0	0.021967828
38	0xbdd0f0ba	-0.10202165
39	0xbe096cd4	-0.13420421
40	0xbec40030	-0.38281393
41	0x3eebf419	0.4608467
42	0x3dd0c928	0.101946175
43	0xbd30bb70	-0.043147504
44	0x3dfb6f16	0.12277047
45	0x3da4775a	0.08030577
46	0x3e4a6530	0.19765162
47	0xbe1cd087	-0.15313922
48	0xbc581abf	-0.0131899705
49	0x3ea7453f	0.32670018
50	0x3ee2d710	0.44304705
51	0xbd67c457	-0.05658373
52	0xbe29ebfc	-0.16593927
53	0x3e246aa4	0.16056305
54	0x3e818a68	0.25300908
55	0x3dc8994e	0.097948655
56	0xbcbbae22	-0.022910181
57	0xbd44485e	-0.047920577
58	0x3e1ef736	0.15523991
59	0x3c1fb70f	0.009748234
60	0xbdfc919b	-0.123324595
61	0x3e029cc5	0.12755115
62	0x3dc060b5	0.093934454
63	0xbee0d554	-0.43912756
64	0xbce8d600	-0.028422356
65	0x3df3bd24	0.1190131
66	0xbd0a2078	-0.03372237
67	0xbdec3d70	-0.11535156
68	0xba6db2a1	-0.00090674503
69	0xbdd74886	-0.105118796
70	0xbd97a994	-0.07405391
71	0x3e0e9426	0.13923702
72	0xbcb62479	-0.022234188
73	0x3da93546	0.08262114
74	0xbd34c4fa	-0.044133164
75	0xbdb811a5	-0.089877404
76	0x3db0152e	0.0859779
77	0xbdce3a48	-0.1006971
78	0xbd744b5b	-0.059642177
79	0x3cb3179b	0.021861842
80	0x3cb35682	0.021891836
81	0xbe260cd3	-0.1621583
82	0xbd237e13	-0.039915156
83	0xbd295702	-0.041342743
84	0x3d670d20	0.056409
85	0x3d573f7c	0.052550778
86	0x3c007eac	0.007842701
87	0x3db366b9	0.08759827
88	0xbd7ecdf0	-0.062208116
89	0xbc8012e3	-0.015634006
90	0x3dd3225d	0.10309289
91	0xbe11e64d	-0.14248009
92	0xbdfa3f8e	-0.12219153
93	0x3c53e130	0.012932107
94	0xbdc42e6c	-0.09579167
95	0x3c005415	0.007832547
96	0x3ce80445	0.028322348
97	0x3e5a93ab	0.21345393
98	0x3d90969f	0.07059979
99	0xbd96207c	-0.07330415
100	0x3e303355	0.17207082
101	0x3d22e788	0.039771587
102	0xbdb1e4f9	-0.08686251
103	0xbde5381c	-0.11192343
104	0x3c4056ac	0.011739414
105	0xbe30050d	-0.17189427
106	0x3e40a186	0.18811616
107	0x3e49bc7a	0.19700804
108	0xbd8d9ceb	-0.06914695
109	0x3de81947	0.11332946
110	0xbea5a548	-0.32352662
111	0x3dc31b79	0.09526724
112	0x3e4f0365	0.20216139
113	0x3e1e9781	0.15487482
114	0x3e38da17	0.18051945
115	0xbe8eac04	-0.27865613
116	0xbd2c4b29	-0.042063866
117	0x3eba670c	0.36406744
118	0xbe47dc54	-0.19517642
119	0x3de7f6c2	0.11326362
120	0xbdc63a56	-0.096790954
121	0x3c1166eb	0.008874635
122	0x3da5cc09	0.08095557
123	0xbda233b5	-0.079200186
124	0x3c800a06	0.01562978
125	0x3dbf48f3	0.09340086
126	0xbe588124	-0.21143013
127	0xbd7d9559	-0.061910007
128	0x3ec5c804	0.38629162
129	0xbe09adfb	-0.13445275
130	0xbe31444d	-0.17311211
131	0xbd9cfbf2	-0.07665242
132	0x3e9fa448	0.31180024
133	0x3db3ae90	0.087735295
134	0x3d922715	0.071363606
135	0xbcbb5765	-0.022868821
136	0x3e3b9524	0.18318611
137	0xbdbd4690	-0.09241974
138	0xbe151872	-0.14560106
139	0x3e88a056	0.26684827
140	0xbe02206c	-0.1270768
141	0xbcb3ce3a	-0.021948922
142	0x3e533407	0.20625316
143	0xbe74ed2d	-0.239186
144	0xbdf6b630	-0.12046468
145	0xbc863880	-0.016384363
146	0xbe796480	-0.24354744
147	0x3e16ecc1	0.14738752
148	0xbd46fbe2	-0.048580058
149	0xbd617c54	-0.05505021
150	0xbd5799ba	-0.05263684
151	0x3e37e579	0.1795863
152	0x3d62fb2d	0.05541532
153	0xbe553186	-0.20819673
154	0xbe1728bf	-0.14761637
155	0xbd91fa1d	-0.071277834
156	0xbe613aab	-0.21995036
157	0x3d9074aa	0.07053502
158	0x3e3e83e5	0.18605001
159	0x3da5d186	0.08096604
160	0xbdb6d1a1	-0.08926702
161	0x3d3ee01c	0.046600446
162	0x3f2b7578	0.6697612
163	0x3d56be24	0.052427426
164	0xbd75730f	-0.05992418
165	0xbd409ef6	-0.047026597
166	0xbe198c78	-0.14994991
167	0x3e229f01	0.15880968
168	0x3dc3e696	0.09565465
169	0x3bab24e2	0.0052229026
170	0xbdd3ef93	-0.103484295
171	0xbc9abcda	-0.01888888
172	0x3d9fee9e	0.078091845
173	0x3ea436ca	0.3207305
174	0x3dc90380	0.09815121
175	0xbe5309e8	-0.20609248
176	0xbe15880c	-0.14602679
177	0xbd7a1891	-0.061058585
178	0x3e2b8b24	0.16752297
179	0x3e02ae5e	0.12761828
180	0xbe079ee8	-0.13244212
181	0x3e5a80b2	0.21338156
182	0x3e9d66eb	0.30742583
183	0xbe2deeab	-0.16985576
184	0xbedf5947	-0.436228
185	0x3e7cfd08	0.24705899
186	0x3eaefa28	0.3417523
187	0x3ec2b32f	0.3802733
188	0x3e5f3184	0.21796232
189	0xbe252b8a	-0.1612989
190	0x3ebbb94a	0.36664802
191	0xbd8eba8a	-0.06969173
192	0xbc173293	-0.009228366
193	0x3bdf29de	0.006810411
194	0x3d663e7a	0.056211926
195	0xbdb09e1d	-0.08623908
196	0xbde9946b	-0.114052616
197	0x3e4e571d	0.20150419
198	0x3eb7beb6	0.35887688
199	0xbd82dd52	-0.0638987
200	0xbe1f696c	-0.15567559
201	0xbdc4dd55	-0.09612528
202	0x3ea2114b	0.31653818
203	0x3ddbb426	0.1072772
204	0x3ebfd184	0.37464535
205	0xbd8308a7	-0.06398135
206	0xbca78cf7	-0.02045296
207	0xba8a7e7e	-0.0010566262
208	0xbc2397f2	-0.009984957
209	0xbec01670	-0.37517118
210	0xbe5c15c3	-0.21492676
211	0x3e81d45e	0.25357336
212	0xbda196e2	-0.07890107
213	0xbdc9a873	-0.09846582
214	0x3daecf68	0.08535653
215	0xbd04852b	-0.03235356
216	0xbe7486c5	-0.23879535
217	0xbe2a4a60	-0.16629934
218	0xbdd0db08	-0.10198027
219	0x3b21dcfb	0.0024698365
220	0xbda92749	-0.08259446
221	0x3dfd9606	0.1238213
222	0xbe17ef78	-0.14837444
223	0x3c97626b	0.018479547
224	0x3e814158	0.25245166
225	0x3eb72a41	0.35774425
226	0xbf34dd05	-0.7064975
227	0x3e84c321	0.25930122
228	0xbe59f277	-0.21283899
229	0x3e269487	0.16267596
230	0xbec280a8	-0.37988782
231	0x3dad4458	0.08460301
232	0x3d91eacf	0.07124864
233	0xbe50d436	-0.20393452
234	0xbc9c4c5a	-0.019079376
235	0x3e106227	0.14099942
236	0xbde2b534	-0.11069718
237	0x3e1aa9a2	0.15103772
238	0x3d952926	0.07283239
239	0x3d852ee5	0.06503085
240	0x3e42e2e0	0.19031858
241	0x3d7da1a5	0.061921734
242	0xbd7f322c	-0.062303707
243	0xbe976045	-0.29565635
244	0x3e11063b	0.14162533
245	0x3ec27905	0.37982956
246	0xbe476f40	-0.19476032
247	0x3ccee62e	0.025256243
248	0xbd4e6638	-0.050390452
249	0x3d2b39f6	0.041803323
250	0x3dc35715	0.09538094
251	0xbed3db75	-0.4137837
252	0xbd9b2376	-0.07575123
253	0xbf04c26e	-0.51859176
254	0xbdfc4e40	-0.123196125
255	0xbedbd205	-0.4293367

fcs.2.bias f4 [32]
0	0xbe3c65fb	-0.18398277
1	0xbe0f5aba	-0.13999453
2	0xbe57d0cc	-0.21075743
3	0x3eda8a2b	0.4268354
4	0x3d98e175	0.074648775
5	0x3ce685cd	0.028139973
6	0xbdb7721e	-0.08957313
7	0xbda254c6	-0.079263255
8	0x3e197df3	0.14989452
9	0x3e705b8d	0.23472424
10	0xbdee677b	-0.11640831
11	0xbdab89e5	-0.08375911
12	0x3ec36b99	0.38168028
13	0x3d262e90	0.04057175
14	0x3d1d53fe	0.03841018
15	0x3e57681f	0.21035813
16	0x3da740c4	0.0816665
17	0x3f00c1a5	0.5029548
18	0x3e955053	0.29162845
19	0xbdaca253	-0.084293984
20	0xbe1ee6f6	-0.15517792
21	0x3ecdf213	0.4022375
22	0x3df4614b	0.1193262
23	0xbca63cb5	-0.02029262
24	0x3e671a4a	0.22568622
25	0xbe4cf96a	-0.20017019
26	0xbd27d8f1	-0.040978376
27	0x3ecc9f6d	0.39965382
28	0xbbb80e60	-0.005616948
29	0xbdf4debc	-0.11956546
30	0x3eb21edd	0.34789172
31	0xbe05f028	-0.13079894

out.weight f4 [4, 32]
0	0xbe5e80dc	-0.21728843
1	0xbe3caccd	-0.18425293
2	0x3d9d1f3e	0.076719746
3	0x3e991fba	0.29907018
4	0x3e9caaf5	0.3059918
5	0xbe812acf	-0.25227973
6	0xbcdaff29	-0.026732998
7	0x3c32a45c	0.010903444
8	0x3eaa6ec4	0.33287632
9	0x3e4ed501	0.20198442
10	0x3d50ebc9	0.051006112
11	0xbed6eb1a	-0.41976243
12	0x3e8c0b1e	0.27352232
13	0xbe46eae8	-0.19425547
14	0xbe7cd00b	-0.24688737
15	0x3d5e4146	0.05426147
16	0xbeba0f17	-0.36339638
17	0x3e78483f	0.2424631
18	0x3e90a06d	0.28247395
19	0x3e1f8b69	0.15580525
20	0xbe2c6369	-0.16834797
21	0x3e6a80df	0.22900723
22	0xbe3147af	-0.17312501
23	0x3e94c8b6	0.2905938
24	0xbe5f3517	-0.21797596
25	0x3d847f9a	0.064696506
26	0xbd5ae24f	-0.05343848
27	0x3e9f48eb	0.3111032
28	0xbe8d8b61	-0.276454
29	0xbc98a0ff	-0.018631456
30	0x3e31bae5	0.17356451
31	0x3d0efd70	0.034909666
32	0xba254d83	-0.00063058006
33	0xbef64afc	-0.48104084
34	0xbe2167c5	-0.15762241
35	0x3dd6f440	0.10495806
36	0x3e6d6792	0.2318404
37	0x3de254ec	0.11051354
38	0x3df6da1a	0.12053318
39	0x3e4260f2	0.18982294
40	0x3ef7e798	0.4841888
41	0x3e464dfc	0.19365686
42	0x3dc83885	0.09776405
43	0xbe8eac67	-0.27865908
44	0x3db59648	0.088665545
45	0x3c865937	0.016399963
46	0xbe91a618	-0.28447032
47	0x3e63820c	0.22217578
48	0x3e367a95	0.17820199
49	0x3ebfd43d	0.37466612
50	0x3e1eb54d	0.15498848
51	0x3ded0656	0.11573474
52	0xbe6b9b26	-0.23008403
53	0x3eb01e08	0.34397912
54	0x3d83c915	0.06434838
55	0x3e941e3b	0.28929314
56	0xbc241e98	-0.01001706
57	0x3dd6756c	0.10471615
58	0x3da05ffe	0.07830809
59	0x3de0cd48	0.10976654
60	0xbe630934	-0.2217148
61	0x3e0258c3	0.12729172
62	0x3df4c03a	0.11950727
63	0xbc89719c	-0.016777806
64	0xbe15f3c4	-0.1464377
65	0xbd5f6c87	-0.05454686
66	0x3dbcfec9	0.09228284
67	0x3dd504f5	0.10401336
68	0x3d851123	0.06497409
69	0x3e98f66e	0.2987551
70	0xbe4c5ab0	-0.1995647
71	0x3e9057ba	0.2819193
72	0x3ed7f85e	0.42181677
73	0x3d86e9ad	0.06587539
74	0xbe136ca8	-0.14396918
75	0xbda4d4fb	-0.08048435
76	0x3d7b6282	0.06137324
77	0x3d21a8e5	0.03946771
78	0xbe724077	-0.23657404
79	0x3e9e0a95	0.30867448
80	0xbd8a16e9	-0.06742651
81	0x3e2b8d11	0.16753031
82	0x3ed54c0f	0.4165959
83	0x3e86d841	0.26336864
84	0x3c98cdf9	0.018652903
85	0x3e9b03bb	0.30276284
86	0xbe2c9f06	-0.16857538
87	0x3e8eaae1	0.27864745
88	0x3efa3ef0	0.48876143
89	0xbda86204	-0.0822182
90	0xbe21d74f	-0.1580479
91	0x3e597c5f	0.2123885
92	0xbea0c59d	-0.31400767
93	0xbeb4607c	-0.35229862
94	0x3e088bb6	0.13334545
95	0xbd9a666d	-0.075390674
96	0x3dc9f9e8	0.09862119
97	0xbeb25d57	-0.34836838
98	0xbd4c4eb1	-0.049879733
99	0x3ea40ad0	0.320395
100	0x3ea35d93	0.3190733
101	0x3eb1e49f	0.34744737
102	0xbe96a196	-0.29420155
103	0x3eb23116	0.34803075
104	0xbd262c8b	-0.040569823
105	0x3f20476d	0.6260899
106	0xbcc67381	-0.024224998
107	0x3e8bb2c6	0.2728483
108	0x3e9b7a26	0.3036663
109	0xbe8e9006	-0.27844256
110	0xbeaa56a4	-0.33269227
111	0xbe2d6495	-0.169329
112	0xbee2461b	-0.4419411
113	0x3ea791a8	0.32728314
114	0x3c358005	0.0110778855
115	0xbdcec2fe	-0.100957856
116	0x3d41eb38	0.047343463
117	0x3e963260	0.29335308
118	0x3ea138c9	0.31488636
119	0x3e71f50c	0.23628634
120	0xbd6907e4	-0.05689229
121	0x3e042488	0.1290456
122	0xbe3fee6e	-0.18743297
123	0xbd641f95	-0.05569418
124	0xbe740308	-0.23829281
125	0x3e0db9a5	0.13840349
126	0x3e8db189	0.2767451
127	0x3ca547e0	0.020175874

out.bias f4 [4]
0	0x3dfc15df	0.12308859
1	0x3e078402	0.1323395
2	0x3db6450e	0.0889989
3	0x3dd3de40	0.10345125
