dqn/exercise/checkpoint.pth (torch_old, 37870 bytes, 8 tensors)

fcs.0.weight f4 [64, 8]
00000000: f229 03bf 0579 62bd 308b 23be 02f0 3cbd
00000010: ad42 253d 65b6 933e cd1f 5e3e be57 c73e
00000020: 6449 5dbe 14d0 8abb 0898 8abe 7709 09be
00000030: 4ac3 d5be 80dc 41bf 0020 0ebe 659e 6abd
00000040: 445c 1d3e a78e 15bf 6f9c 18bf d304 87bd
00000050: 5d31 253f 9362 3e3e 5783 813e 7084 793e
00000060: ea80 483d 9e69 d9bc 9f4e 723f 2bd8 97bf
00000070: 55a1 25bd 1343 90bc cf63 ecbe ed82 113e
00000080: 8a29 acbe f4d4 58be ffbe d8be 99b9 50bf
00000090: b48d a23c df4e b63e 4f5b b93d e25d 4c3e
000000a0: e0ae bf3d 9337 09bf e338 6d3d 5202 24bf
000000b0: ab7e bbbe f736 9abe 2433 473b 4867 c53d
000000c0: b5dc b9bd 6f76 01bd 7c9b 183e 0a6c 4c3e
000000d0: 8014 f33e 6e96 273f 0045 4a3f aaca 64be
000000e0: 1f2a 4abf fc63 f3bf 7863 cdbe 6634 edbe
000000f0: 46ac ef3e 6b9e afbc 43cb 9f3d e1fe f03b
00000100: 3b75 2f3e 7856 abbd 7a90 b63d 8a26 7d3d
00000110: 0c55 0ebf 296a 463f 5de8 fc3d 20a4 33bf
00000120: 57f9 8a3e 01fd 403e d6de f33d 9414 0f3f
00000130: fb6a 77be f9a1 0fbf 142f a43d e46f 3b3e
00000140: 2423 0dbd 7254 fa3e 95db bc3e 98ef 08bf
00000150: fae2 233b 1739 253f f3b4 b63e be62 52be
00000160: 4dbb 03be 4d6f c83b a4eb 01bf caeb e33e
00000170: 0eae e33e 5a2c ad3e 4529 b3be 879a 61be
00000180: 94d9 2bbe 0e14 b43e be90 af3e 437f 9a3d
00000190: cc94 82be 9096 3d3f 7589 7a3e f624 06bf
000001a0: f027 2fbe a1a9 83be 3f4d 40bf facf acbe
000001b0: b95d 6d3f ea7d 9cbd 6616 c5bd bdad af3e
000001c0: 85c0 8f3d 0d1a c33d 0e8b 713f d327 93be
000001d0: 635a a6bc 0a60 083f 5c4d 363d 29e3 e63d
000001e0: 009e 833e 4e34 043f c926 4abe e1b3 833e
000001f0: 7fed c2bf b767 22bf ca18 4f3e 735d 98be
00000200: f84c 443e 8427 5bbf 1ba3 ee3d 2e4f 94be
00000210: 99c5 42bd 3cc0 0a3d 1511 933e efd7 b4bd
00000220: f328 68be a414 ba3b 5a4d 3bbe 8d38 413d
00000230: 72aa 1bbe 474c ba3d d338 223f 88c6 0d3e
00000240: 4f76 abbe 95b8 9bbe e06c 1c3e 4dc7 acbd
00000250: 9050 19bf 2968 f6be 9a0a 23bf 8391 06bd
00000260: bf9b 343e 5d7e a03e 50ca b83e 2842 97be
00000270: accf 2e3f a9a0 31bf 4fdf d23d 3cf2 bfbe
00000280: 3e5d dfbe ac15 82bf 86de 97be c77c 0bbf
00000290: ebde df3e 36c5 29bd dc8b d0be 852e 063e
000002a0: 530b 11bf f0f2 3cbe 1da6 383f a92f ef3d
000002b0: 4fd2 773c 76ef 233e 6d4b 49be 85b0 013f
000002c0: bc53 a83e d9c1 84bf bfdd 6e3e c647 2bbf
000002d0: 2e44 3c3e ea49 1cbe 212d f2bc bb5f 753b
000002e0: ce54 af3f 6174 ebbf 5fd2 73be 18d9 2bbf
000002f0: 3e34 d2be d81e 89bd 4f18 b23e d7a1 163e
00000300: b9cd 003e 80ca a3bd 2810 8dbf 304f 8abe
00000310: ef79 b8bd 3a8b 423d c533 6c3d d80a 1c3d
00000320: 2c3f 7e3d 5831 31bf d063 ee3d 7844 02bf
00000330: 92a5 01bf bb8c 573f 338b b6bd 7dc1 d23e
00000340: 3eb5 b53e 7856 debf 0220 9dbb 4c12 7cbf
00000350: 7122 023d 45e0 cd3b 21ac 3c3d 28d0 8a3d
00000360: fada 883e 3a12 c4bf 99b3 a83e ee75 1abf
00000370: 6b35 303e 7e47 203f d818 b93d fdaa 02be
00000380: c6ef 4cbf 2356 583f beda 36bf 8c5c 7abe
00000390: 7648 083f f304 d93e 9c46 97be e4f8 c23d
000003a0: 078a 3bbe ff3b fe3e 8c6a 153f 2a9d 25be
000003b0: c00c 383f 50b5 14bf 17cc 87be be40 9b3d
000003c0: 3f6e aebe 4cce c63e ed10 f9be e22d aabe
000003d0: 85d5 193f 11e5 053e b112 023e 23f3 473e
000003e0: 46b2 cebe e677 25bf b9c7 27be 089e 023f
000003f0: 116d ec3d aa3d 0e3d 079a c4be 30dd f9bd
-0.5123588 -0.055291194 -0.15971065 -0.046127327 0.04034679 0.28850093 0.21691819 0.3893413
-0.21610028 -0.0042362306 -0.27069116 -0.13382517 -0.41750556 -0.7572708 -0.13879395 -0.057279963
0.15367228 -0.58420795 -0.596137 -0.06592717 0.6452845 0.1859229 0.25295517 0.24366927
0.048951067 -0.02653962 0.94651216 -1.1862844 -0.04043706 -0.017610108 -0.46169898 0.142101
-0.33625442 -0.21174985 -0.42333218 -0.815332 0.01984296 0.3560705 0.09050619 0.19957688
0.09359527 -0.53600425 0.05791558 -0.6406604 -0.36620077 -0.3012006 0.0030395472 0.0963884
-0.090753 -0.031607088 0.14903063 0.19963089 0.47476578 0.6546391 0.79011536 -0.22342935
-0.7897052 -1.9014888 -0.4011495 -0.4632904 0.46811122 -0.021437844 0.07802441 0.0073546027
0.17134564 -0.08366102 0.089142755 0.06180433 -0.5559852 0.7750574 0.12349007 -0.7017231
0.27143356 0.18846513 0.11907737 0.55890775 -0.24161904 -0.56106526 0.08016792 0.18304402
-0.03445734 0.48892552 0.36886278 -0.5349059 0.0025007115 0.6454024 0.35684928 -0.2054548
-0.12864418 0.0061167837 -0.50750184 0.4451583 0.4446873 0.338229 -0.34992424 -0.22031604
-0.16782218 0.3517155 0.34290117 0.075438045 -0.25504148 0.74057865 0.24466498 -0.5240015
-0.17105079 -0.25715354 -0.7511787 -0.33752424 0.92721134 -0.07641204 -0.09623413 0.3431224
0.07019142 0.09526453 0.94352806 -0.2874132 -0.020306772 0.53271544 0.04450737 0.11273796
0.25706482 0.5164231 -0.19741358 0.25723174 -1.5228728 -0.63439506 0.202243 -0.29758796
0.19169986 -0.8560717 0.11652204 -0.2896666 -0.047551725 0.033874735 0.2872397 -0.088302486
-0.22671871 0.00567873 -0.18291226 0.04717307 -0.15201738 0.0909658 0.63367957 0.13845265
-0.334887 -0.30414262 0.15275908 -0.08436451 -0.59888554 -0.48126343 -0.6368805 -0.032853615
0.17637537 0.31346408 0.36091852 -0.2954266 0.6828563 -0.6938577 0.10296499 -0.37489498
-0.43625826 -1.0162864 -0.2966196 -0.5448727 0.4372476 -0.04144784 -0.40731704 0.13103683
-0.56657904 -0.18452048 0.7212847 0.11679012 0.015125825 0.16009316 -0.19657679 0.5065997
0.32876384 -1.0371658 0.23326777 -0.6690639 0.18385383 -0.15262571 -0.029562535 0.0037441093
1.3697755 -1.8394891 -0.23810719 -0.67128134 -0.41055483 -0.06695336 0.3478417 0.14710175
0.12578477 -0.07997608 -1.1020555 -0.2701354 -0.09007632 0.047496058 0.05766656 0.03809628
0.062071964 -0.6921592 0.116401315 -0.50885725 -0.50643265 0.8419911 -0.08913269 0.41163245
0.3548984 -1.7370138 -0.0047950754 -0.9846542 0.031771127 0.0062828385 0.046062592 0.06777984
0.26729566 -1.5318062 0.32949522 -0.60336196 0.17207877 0.6260909 0.09037942 -0.1276054
-0.80053365 0.84506434 -0.71427524 -0.24449366 0.53235567 0.42386588 -0.29546058 0.09520128
-0.18314372 0.49655148 0.583657 -0.16173235 0.71894455 -0.5808916 -0.26522896 0.07580708
-0.34068486 0.38829267 -0.48645726 -0.3323813 0.6009143 0.13075663 0.12702443 0.19526343
-0.40370387 -0.64636075 -0.16384782 0.51022387 0.1154424 0.034726776 -0.38398764 -0.12200391

fcs.0.bias f4 [64]
00000000: e91e a0be f2b1 54bd 0053 39be a622 df3b
00000010: fc7a febd 1481 5f3e 5199 9b3e b512 79bd
00000020: 7841 583e 136c a43e a489 943b 1c4b d3be
00000030: 7580 5fbe 9500 7ebe eff1 713e d18b b33e
00000040: 92bb 593e f1fe 35be d94d ff3e 4b41 9e3e
00000050: 1059 33be 0449 f4bd 023a f4bd 1b5f 6dbe
00000060: 91fc 323d 49c6 71be 6bd0 00bd 9965 b9bd
00000070: 9ea7 033e 1b67 e2bd 35e3 f93d 3896 b6be
00000080: 34f5 9ebd f42f aa3e 9d70 103e 32c2 383e
00000090: ae15 033e 4ae9 8d3c 97be abbe e4f9 c5be
000000a0: 405d eb3e 36eb 38be e896 f3bc 417e 65be
000000b0: 6113 01bd 1b47 363c e160 233f 046e 1a3d
000000c0: cfdf edbd 329e 8ebe 5170 8e3c c566 943e
000000d0: d49a 7d3d e27c df3e 74bc ac3e 7e62 afbe
000000e0: 11c7 9b3d 3468 9e3e d588 3e3e 87a4 5c3d
000000f0: f06f 54bd 1ea1 223e e42b 033f d299 363d
-0.31273583 -0.051927514 -0.18098068 0.0068095503 -0.12425801 0.21826583 0.3039041 -0.060808856
0.21118724 0.32113704 0.0045330096 -0.4126824 -0.21826346 -0.2480491 0.23627447 0.3506761
0.21262959 -0.17773034 0.4986408 0.3090919 -0.17514443 -0.11927989 -0.119251266 -0.23180811
0.043697897 -0.23610796 -0.031448763 -0.09052581 0.1285691 -0.11054822 0.122015394 -0.35661483
-0.077616125 0.3323971 0.14105459 0.1804283 0.12801239 0.017323155 -0.33543846 -0.38667214
0.45969582 -0.18058476 -0.029735044 -0.22411443 -0.03151262 0.011125351 0.638197 0.037702575
-0.11614954 -0.27855068 0.017387541 0.28984657 0.061915234 0.43649966 0.33737528 -0.3425483
0.07606328 0.30938876 0.18606885 0.053867843 -0.051864564 0.15881774 0.51238847 0.04458029

fcs.1.weight f4 [64, 64]
00000000: 392b 2d3c 2121 d63d 94fc a53d 8025 f43d
00000010: 1f40 f83c 0599 bfbd 9de7 6cbe 445d 0f3e
00000020: 1310 5bbc ab8c 37bf 4fe1 abbd 51a0 853e
00000030: a5d7 133e 3278 203e 3f87 99bd 7eb3 60bf
00000040: 0098 70bd 6423 673e 363b e23d e0c5 09be
00000050: f441 e5bd ab27 a4bd 840d 7a3e 20e7 bebc
00000060: 38bb 09be b414 25be 1aa8 9c3c 579a d33d
00000070: 75aa f0bd a88d 37be 22c7 e83d 665e 5dbc
00000080: dfb1 e7bc 6ce5 b6bd 0b52 5bbd d5f8 bbbe
00000090: 3be5 833e 3bd6 7f3d 309d 353d 5f2d ff3d
000000a0: 7b7d 4d3b 83c4 07be 6104 28be d179 9bbe
000000b0: edfc 633e 4613 793e 5cf2 afbe 5712 10be
000000c0: 53e7 bdbe 1937 553e 46b6 eabe 662c 56be
000000d0: b491 173c 257d c13c 1179 d33d 6ec0 c53c
000000e0: eb05 b93d 14a4 e2bd a40a c1bd f962 a7bb
000000f0: eb39 c1bd 28a6 86bd c80b f1be e650 583d
00000100: 7224 3cbd 4a7c c03e d053 8dbe 33ad eb3d
00000110: efe5 57be eb45 473e 8327 14bf e812 383e
00000120: 85a1 30be babd 19be 5d44 37be 73c4 ddbc
00000130: 0814 c2bc 4445 93bc 32ea a3be 6e91 32be
00000140: 8952 953d 31d4 ae3c 0a53 973d 3870 0dbd
00000150: 7c22 463d 320a ab3a 15cf 8e3e a25f c4ba
00000160: deb2 89be ea55 03bd 5381 ff3d 09ef 443e
00000170: 767b ddbd 14df 253d 0278 96be 401f 063e
00000180: c92c 13be 1679 39be 9ae9 0cbe 6d94 a2be
00000190: 885f a93d da35 5e3e ca4f af3d 850a a0bb
000001a0: 2303 f6be 3146 92be f088 a8bd d847 f0be
000001b0: e971 003f 1ee4 213e cd66 b5be 3cc3 c7bd
000001c0: b052 40be 5d8d 1e3d 5966 febe 2e0a cbbe
000001d0: ee19 c03e f93b 4a3e c7aa 413d d940 d83e
000001e0: a915 453e 4473 87be 4670 8abd e5f4 d33d
000001f0: c52b 05bf 10cc 463d 5285 38bf 6246 523e
00000200: f061 01be 8a96 d2bc 33f6 42be feda 143e
00000210: 5069 e4bd 1eb2 1d3e dbde b3bd 42ac e23b
00000220: a133 80bd ed9c 25bf ee31 d23d c014 fe3d
00000230: 69fd d83c afac 14be b557 bc3d 283c 0ebf
00000240: 24dc 5a3e b331 803c 94fe 563d 4a10 2fbe
00000250: bdc0 85bb b18d 88bd 6151 df3e 4c05 60be
00000260: 2396 cf3a fb8b b4bd 2be2 fb3d 20d0 a23e
00000270: e841 cebe 1fc8 e6bd 1e30 14be 3d3c 2a3d
00000280: 010c b7be 5e5f e7bd cc5a b8bc 39c4 12bf
00000290: ff1b 143e 8da5 3c3e ccf7 ca3d 11b7 9fbc
000002a0: 7c6e fcbc 2f7f d13a dda3 19be 3e11 6fbf
000002b0: 0bf9 f23d 4967 c13d 0491 21bf 6e60 dbbd
000002c0: 9659 8cbe afbe 8a3e 972b edbe 2dfc 5abe
000002d0: 7283 943d fc49 283e 61c0 0b3e 7d51 22bc
000002e0: 8076 8f3d 575e 91be f13c e8be 233d 6b3e
000002f0: 85e2 bdbc 9a67 b53d d19d c4be f5d6 b33d
00000300: cb94 c8be 4f0d c1be 311f ddbd 3575 323e
00000310: 368d 5ebe e05b e5bd 6f1f 08bf d695 78bd
00000320: c517 d13d 3fef aa3d 7550 f73d 1e42 84bf
00000330: 1ab5 10bf a2be eb3e 4f7d 17bd 2970 9a3e
00000340: c7b0 02bf 1c5b 1cbf 6f1b 27be 87de 6f3e
00000350: e6f2 993e c229 fc3c f825 11bf 4fa2 05be
00000360: 86d0 fc3e 1990 063f 8e1c f7bb 6fbf 39bd
00000370: c5ca 843d a17f a93e 9769 1c3d 3f14 8ebe
00000380: 0b52 9dbe f20b f53d 5df0 113f 6410 3e3e
00000390: 3f90 b8bd dceb ed3d 0690 fe3d ce46 bdbd
000003a0: f818 6a3e af75 133e e28e 7ebe 732b a53c
000003b0: 410e 6d3d dfd2 e2be 02bc c73e 4c54 bfbd
000003c0: 4583 0f3f 098c 2fbf 4df0 8b3f 786e d73e
000003d0: 7c39 8ebe d000 d53e c3fa 423e ce16 cfbe
000003e0: bcd1 f43d 83bb 203e a4ca 1cbb 1ab4 203e
000003f0: f480 c1be b4a9 a8be b554 5b3e 9c41 d03c
0.010569387 0.104555376 0.08104816 0.11921215 0.030304013 -0.09355358 -0.23135228 0.14000422
-0.013370532 -0.7169902 -0.083925836 0.26098874 0.1443773 0.15670851 -0.07496499 -0.87773883
-0.05873871 0.22572094 0.1104645 -0.1345439 -0.1119422 -0.080153786 0.24419218 -0.023303568
-0.13450325 -0.16121179 0.019123126 0.10332172 -0.11751262 -0.17925131 0.113661066 -0.013511276
-0.028283058 -0.089304775 -0.05354504 -0.3671328 0.25760826 0.062460165 0.04433936 0.12459826
0.003135531 -0.13258557 -0.1640792 -0.30366376 0.22264452 0.24323758 -0.34364593 -0.14069496
-0.3709055 0.208218 -0.4584219 -0.20915374 0.009251047 0.023619244 0.10325826 0.02413961
0.09034332 -0.11066452 -0.09425858 -0.005108234 -0.09434875 -0.065746605 -0.470793 0.052811526
-0.045933194 0.37594825 -0.27603006 0.115076445 -0.21083806 0.19460265 -0.5787279 0.17975962
-0.17249115 -0.15013781 -0.17897172 -0.027071213 -0.023691192 -0.017977364 -0.32014614 -0.1743829
0.07291133 0.021341415 0.07388885 -0.03453085 0.04837273 0.0013049303 0.27892366 -0.0014982114
-0.26894277 -0.032064356 0.124758385 0.1923181 -0.10814564 0.040495947 -0.29388434 0.13097858
-0.14372553 -0.18112597 -0.13760987 -0.31753865 0.08270174 0.2170023 0.085601404 -0.0048840665
-0.48049268 -0.28569177 -0.08229244 -0.46929812 0.50173813 0.15809676 -0.35429993 -0.09754035
-0.18781543 0.038709033 -0.4968746 -0.39656204 0.37519783 0.1974944 0.047282007 0.42236975
0.19246544 -0.26455128 -0.06759696 0.10349444 -0.5201991 0.048534453 -0.7207843 0.20534661
-0.12635016 -0.025706548 -0.1903923 0.14536664 -0.11152899 0.15399978 -0.08782741 0.0069175074
-0.062598474 -0.64692575 0.102634296 0.124063015 0.026488023 -0.14518999 0.09196416 -0.5556054
0.2137304 0.015648698 0.05248888 -0.17096058 -0.004081814 -0.066676505 0.43616775 -0.2187702
0.0015837591 -0.08815762 0.122989975 0.31799412 -0.40284657 -0.11268639 -0.1447148 0.041561354
-0.35751346 -0.11297487 -0.022504233 -0.5733066 0.14463805 0.18422528 0.09910545 -0.019496473
-0.030814402 0.0015983338 -0.15003915 -0.93385684 0.118639074 0.09443528 -0.631119 -0.10711752
-0.274121 0.27098605 -0.4632232 -0.2138526 0.07251634 0.16434473 0.13647605 -0.009907124
0.07005024 -0.28392288 -0.45358995 0.2297254 -0.023179302 0.08857651 -0.38401654 0.08781234
-0.3917602 -0.37705466 -0.10796965 0.17427523 -0.21733555 -0.111991644 -0.53172964 -0.06068977
0.10209612 0.08346414 0.12075893 -1.0332677 -0.5652634 0.4604388 -0.036984738 0.30163696
-0.5105099 -0.6107652 -0.16319059 0.23424731 0.3006813 0.03078163 -0.5669856 -0.13050197
0.4937784 0.52563626 -0.007541246 -0.04534858 0.06483988 0.33105186 0.038186636 -0.27749822
-0.30726656 0.11965169 0.5700739 0.1856094 -0.09011888 0.11617252 0.12429814 -0.092420205
0.22861087 0.14400361 -0.24859193 0.02016232 0.05787492 -0.44301507 0.39010626 -0.0934225
0.56059676 -0.6857305 1.0932709 0.42076468 -0.27778232 0.41602182 0.1904097 -0.40447086
0.11954066 0.1569653 -0.0023924494 0.15693703 -0.37793696 -0.32941973 0.21419032 0.02542191

fcs.1.bias f4 [64]
00000000: 1b85 48be 6037 c6be 2622 9cbe d187 a83e
00000010: 57d5 183d 1379 543d 015b e43d f00b 84be
00000020: 2ba0 583c f01e b9bd 345b 363c bf5d dfbd
00000030: 60e9 58be 1ad5 1a3e 3cd0 cfbd 9f9f 013f
00000040: 3aab 003e 4326 0ebe b183 23bd 87e0 5dbe
00000050: d2c1 afbd ead6 933d 71d5 1ebd 9873 98ba
00000060: 72ea e63d 4084 b43d 1f8f 5f3e 6aac 3bbe
00000070: 36d4 0c3e b389 85be b0ce 313f ae9b 0fbe
00000080: e924 55be efda 5c3e 8ee2 93bc bd47 f9bd
00000090: 4697 90bd 0bfb 9abd 62d3 3ebd 0e70 b7bd
000000a0: 2c12 183e 5856 0c3d f6ba ab3d d50a d9bd
000000b0: 26f1 aebd a1f6 a73d 4e1d 0fbe a501 46be
000000c0: a684 583e 2552 c73d 7eee 7e3e 1b3a 1d3e
000000d0: bba1 313f 2e13 edbd a59d febd 626a d43c
000000e0: 7ae3 7d3e 9ce7 12be 3be9 c9bd 929a 5fbe
000000f0: 0736 45be 2a5a 76be f4b6 223e 1955 3c3e
-0.19582026 -0.38714123 -0.30494803 0.3291612 0.03731283 0.051873278 0.1115017 -0.25790358
0.013221781 -0.09039104 0.011130143 -0.109065525 -0.21182775 0.15120354 -0.101471394 0.5063419
0.12565318 -0.13881783 -0.039920513 -0.21667682 -0.0858189 0.07218726 -0.038777772 -0.0011631129
0.11275186 0.08814287 0.2183194 -0.1832749 0.13752827 -0.2608162 0.69456005 -0.14024231
-0.20814861 0.21567892 -0.018052366 -0.12171886 -0.07060103 -0.07567414 -0.04658831 -0.089569196
0.14850682 0.03426203 0.08385269 -0.10597769 -0.08542089 0.082013376 -0.13976023 -0.19336565
0.21144351 0.09732465 0.24895665 0.15354197 0.69387406 -0.11575924 -0.12432412 0.025929634
0.24793807 -0.14346164 -0.09858938 -0.21836308 -0.19258891 -0.24057832 0.15890104 0.18391837

fcs.2.weight f4 [64, 64]
00000000: 9d74 0b3e d30c d23e fc91 1c3e efa4 dfbe
00000010: 9ebe 653e 88f5 073f a30f 083e 76d0 b43e
00000020: 8937 a7bd 70ec bf3d c920 013f 1f6f bb3e
00000030: 304e 963e 462e e5be cb55 f63e b8b3 2e3e
00000040: e4d9 2e3e 80ec c23e f55d c83c 7b80 913e
00000050: b83e 323e 7c41 943e 861b 093e 0cd2 083f
00000060: 3905 a7be d4fa 3abf daa8 193e d41b 563f
00000070: 1cd5 a3bf 5a8f a93e 1b66 013e c3b3 303e
00000080: b081 263f 0652 93bc 21db f43e 1fe8 fabd
00000090: 5f33 6d3e 69e1 fa3e 361d 153e 90e2 f83e
000000a0: c4d9 05bd 7d38 063f b94c 253f 7dc3 213f
000000b0: b23e 333f 4ae4 95bc 634e 183f 78ad 8d3d
000000c0: bef8 75be 4f20 573e 7777 2ebf 7fbc 023e
000000d0: 8165 8f3e 5251 793e 1db9 ba3e b549 4b3e
000000e0: e608 e0be 8537 a23c c1ec 823e d6dd fe3e
000000f0: e99b 76bf f0bf ee3e 662d 9e3e 0221 0ebd
00000100: 7c96 f53d a290 a73d e49f 953d 49dd edbe
00000110: c7e5 9bbe 1b27 d8bf 89f6 c03c 2040 98bd
00000120: 2afc e33d 3f6d ae3d 3cc2 4abf 149c 423d
00000130: 0afd 3bbe a674 9a3e 1475 e33d cfde 4d3e
00000140: 9afb 653c cf7e e03d 01f6 843d 9c1e 39bd
00000150: 28af 98be 3a7f ec3d f2ff 273d 5dce 57bf
00000160: a6bf 35bd 1b9a 5d3e d7dd ab3d 161d ddbc
00000170: 2b9c 27bc f63b dabe e11b fb3d 31d4 313d
00000180: 1e65 84bf 506b 1fbd 7ef3 a8be cc87 ff3d
00000190: a92f 37be da5a 98be 611b dcbf 3140 72be
000001a0: 0449 f7bd e1ee 94bf 607f 43bf 4650 043e
000001b0: 9a3b 10bf 601a 2f3c f7d7 24bd a517 19bd
000001c0: 9a5e e33d ec82 f0bc ed3e 033e cc32 7d3e
000001d0: 15e5 443e 1ca3 b83d b887 fa3d 2a72 593e
000001e0: 2483 07bf 5304 9c3d 5939 babe 9b66 e8bd
000001f0: 9f65 423e a460 15be fc99 e83d 4ef2 52bf
00000200: 2901 a8bd c9c7 febe ba14 c4bd e9bd 7a3e
00000210: b161 13bd 7c55 1fbf b6cd 963e 7bb0 323d
00000220: 0167 cf3d ab60 853e 182e 043d 0291 02bf
00000230: 25d2 0ebe 5d0b 87be bba1 a0be 12a2 923e
00000240: 516f 1d3e 3795 ebbc c417 aabd c60f 6f3d
00000250: 3e67 a7bd 4d8c dc3e bc39 7c3e 3afc d5be
00000260: 04e1 103f b8e3 a3bc d469 0c3f e74b 31bf
00000270: 978e f63e a367 34bd 8ba6 5d3d 66a6 80bd
00000280: 5ee0 b9bd 200c a33e e46e dcbe 222f 10bd
00000290: 32c4 4bbe 677c 46bd 3504 7d3d b346 07bf
000002a0: a3d7 993e ed45 7bbe e2ab f4be 63e2 33bf
000002b0: a031 04bf c0fa 4dbb f554 3cbe f240 45bd
000002c0: 5e1d 54bd 37aa 59bd b4a3 8d3e 0d4a d63d
000002d0: 3f69 923d 6dcc 0bbe 7d2d eebe 9d66 b1bd
000002e0: 8f79 dd3e fedd 3c3e 1f82 cdbe 5366 fabd
000002f0: b316 b3bd 3506 08bf 4538 2f3e a8ac ea3e
00000300: ca8b f8be 5859 e9be d036 0bbf eb66 413f
00000310: c8d3 603e 3ffa ccbe 2e0b ca3e e0f9 d3be
00000320: 5047 933c 65bf 5abe 118c 45bf eb7f f6be
00000330: 0146 67bf e33a 473f 64a8 aebd e729 b83e
00000340: fdb9 c13e 9968 10bf 1a45 c53d 27bc 1abf
00000350: c1d2 86be 9a38 78be e9f0 73bd 3215 e8be
00000360: 769a 343f 6183 b43f 8227 923d e963 5bbf
00000370: 80c2 8f3f 1ce6 cbbe a1a9 863f 9878 adbe
00000380: b4b7 4fbf 75a1 b93e 43e3 cbbb a461 9bbd
00000390: b54e 2cbc 92c8 91bf b91b 85be 3232 f2be
000003a0: 48cb 863e bc51 29be d747 acbe 6a2e 4bbf
000003b0: 1fe4 29bf 4c61 09be a24d 4ebf 93c8 a5be
000003c0: d1ff 4a3f 937e da3e b7ee b43f 5834 873e
000003d0: ac1b 113f da2a afbe 22a8 e8be 326d a53e
000003e0: 018c 663f 88d0 17bf f196 9abe e66b 0dbf
000003f0: 34c6 2d3f 2436 5dbf 47d3 183f 43ca 3fbe
0.13618703 0.4102541 0.15290064 -0.43680522 0.22435996 0.53109026 0.13287215 0.35315293
-0.08164889 0.09371269 0.5044065 0.36608216 0.29356527 -0.44761866 0.4811233 0.17060745
0.17075306 0.3807106 0.024458865 0.28418335 0.17406738 0.2895621 0.13389406 0.53445506
-0.32621172 -0.73038983 0.15005818 0.8363621 -1.2799411 0.3311718 0.12636606 0.17256074
0.6504164 -0.017983448 0.47823432 -0.12251305 0.23164128 0.490001 0.14561924 0.48610353
-0.03267838 0.52429944 0.64570194 0.63188916 0.7001754 -0.018297333 0.5949461 0.06917852
-0.24020669 0.21008419 -0.6815104 0.12767218 0.2800713 0.24347427 0.36469355 0.19852336
-0.4375679 0.019801864 0.25571254 0.49778622 -0.9633165 0.46630812 0.3089401 -0.034699447
0.11991593 0.081818834 0.07305887 -0.4645789 -0.30448744 -1.6886934 0.023555057 -0.07434106
0.11132081 0.08516931 -0.7920263 0.04751213 -0.18358245 0.3016712 0.11106315 0.20104526
0.014037037 0.10961687 0.06492234 -0.045195207 -0.29821134 0.11547704 0.041015573 -0.8429926
-0.044372223 0.21640818 0.08391922 -0.026991408 -0.010230104 -0.42623872 0.12261177 0.043415252
-1.0343359 -0.0389207 -0.3299827 0.12477073 -0.17889275 -0.29756814 -1.7195855 -0.236573
-0.120744735 -1.16354 -0.76366234 0.12921247 -0.56340945 0.010687441 -0.040245023 -0.037376065
0.11102028 -0.029359303 0.12816973 0.24726409 0.19228013 0.09015486 0.122329175 0.21234956
-0.5293448 0.07618012 -0.36371878 -0.113476954 0.18984078 -0.14587647 0.11357495 -0.8240098
-0.08203346 -0.497618 -0.09574266 0.24486507 -0.035981838 -0.62239814 0.2945382 0.043625336
0.10127068 0.26050314 0.03227052 -0.51002514 -0.13947351 -0.26375857 -0.3137339 0.28639275
0.15374495 -0.028757675 -0.08305314 0.058364652 -0.08173989 0.4307579 0.24631399 -0.41793996
0.56593347 -0.020006046 0.5484898 -0.6925644 0.48155662 -0.04404415 0.054113906 -0.06281738
-0.09075998 0.31845188 -0.43053353 -0.0352012 -0.19899061 -0.048458483 0.06177159 -0.52842253
0.3004733 -0.24538393 -0.47787386 -0.70267314 -0.5163822 -0.0031429976 -0.18391784 -0.04815764
-0.05178582 -0.053140845 0.27663958 0.10463343 0.0714898 -0.13652201 -0.4651908 -0.0866215
0.43256804 0.18444058 -0.40138337 -0.12226548 -0.08744564 -0.5313447 0.17111309 0.4583485
-0.4854415 -0.45575976 -0.5438051 0.75547665 0.21955788 -0.40034673 0.39461654 -0.41401577
0.01797834 -0.21362074 -0.7716685 -0.4814447 -0.9034119 0.7782423 -0.08528212 0.3596947
0.3783721 -0.56409603 0.09632321 -0.6044335 -0.26332667 -0.24240342 -0.05955592 -0.4532867
0.7054819 1.4102594 0.07136442 -0.85699326 1.1231232 -0.39823997 1.0520517 -0.33881068
-0.81139684 0.36255994 -0.00622216 -0.07586983 -0.010516812 -1.1389334 -0.25997713 -0.4730392
0.26326966 -0.16535085 -0.3364856 -0.793677 -0.6636371 -0.13416022 -0.8058721 -0.32379588
0.79296595 0.42674693 1.413535 0.26407123 0.5668285 -0.3421238 -0.45440775 0.32309872
0.9005738 -0.5930257 -0.30193284 -0.55242765 0.6788056 -0.8641074 0.59697384 -0.187295

fcs.2.bias f4 [64]
00000000: b89c 283c 4298 ac3e 673b ff3e ff11 423f
00000010: 4fe5 89bd 1a1a ca3d 8adf 123e 7471 a5ba
00000020: 1139 7e3d a2b8 a1bd ce47 e33c 4c2c 85bd
00000030: a958 903d 2cf0 7cbc d3af 1cbd ae96 c63d
00000040: 0b46 0fbe cc70 74bd 33ac 90bd 6826 7c3d
00000050: 7f06 f83c 2e42 b9bd e691 2d3f a9de 493e
00000060: b238 133b 14ca 13be ca72 c2bd 59cc 423e
00000070: c263 de3c 7303 383e e9dc bc3d 6a63 1abe
00000080: 88ba 793c a583 6bbb e384 0e3f d7ae f3bc
00000090: 2bb2 2b3e 6f3f b93d f380 1c3e 977c 8ebd
000000a0: 67b7 f9bc 4671 513e c871 00bd 6fb9 243c
000000b0: b73c 98bd 43bf 053e 3e1a f83c 2327 683f
000000c0: 36c3 b7bc e834 fcbc 0939 743f a004 56be
000000d0: 3c6c 173f 47c9 4e3d 7fe1 e4ba 8ddd 493d
000000e0: b425 12be e965 353f 26de 44bd 08b9 a23d
000000f0: b6d7 183d 86df 50bc 0bc0 753d 70a8 813d
0.010291271 0.33709913 0.49850008 0.7580871 -0.0673319 0.0986826 0.14343086 -0.0012622313
0.06206614 -0.07896544 0.0277442 -0.065025896 0.070481606 -0.015438121 -0.038253617 0.096967086
-0.13991563 -0.059677884 -0.070640944 0.061560065 0.030276535 -0.09045826 0.6780075 0.19713844
0.0022464213 -0.14432555 -0.094945505 0.19023265 0.027147178 0.17970066 0.09221823 -0.15076986
0.015242226 -0.003593662 0.5567152 -0.029746456 0.16767184 0.09045302 0.15283565 -0.069573574
-0.03048296 0.20453367 -0.03135851 0.010053976 -0.074334554 0.13061242 0.03028595 0.9068472
-0.022431951 -0.030786946 0.9539953 -0.20900202 0.5914953 0.05048492 -0.0017462223 0.049283553
-0.14272195 0.7085863 -0.04806342 0.07945448 0.037315093 -0.012748605 0.0599976 0.06330955

out.weight f4 [4, 64]
00000000: b029 99be 7003 c33e 2184 db3e ab3e 573f
00000010: 4749 1bbd 7103 a0be 7e6d a53e 1a83 90be
00000020: 7f9f babe 9f58 35bf 850b d73d 5166 38be
00000030: 02c0 c0be 9a77 fdbe aee9 35bf 58b7 443f
00000040: 6643 753d 0fd7 32be 6600 893c 9157 64be
00000050: 054a 993c ae4c b5be 80fe 763f 012c bcbe
00000060: e14e 03bf 344d 603d cc4b ebbc 4d33 76be
00000070: c152 03be f12c b7be 0c0a 9ebe 4bd9 713d
00000080: cef4 37bf f995 83be 1a91 aa3e 34c8 b1be
00000090: e78c 1ebf fa61 94be bd96 09be 81af 91be
000000a0: 9f69 35bf 7dc3 96be 62ed 9fbe 617e 90be
000000b0: f520 9c3d ce13 c1be dc35 d4bd 3118 6a3f
000000c0: 7704 65be a07e a7be d482 8c3f 1cf9 d83b
000000d0: ba76 083f 88be 6cbe 3def a23d c933 d5be
000000e0: c94a ccbf a575 0a40 fd5e 82be 2928 88be
000000f0: b290 753d cd31 f9be de47 1ebf 3b68 c4be
00000100: 2197 97be 1d2d c83e 38d5 d03e 16a9 4e3f
00000110: a2a5 3e3d 7ad3 5ebe 623e 7d3d f046 a3be
00000120: 3e51 98be 0fa6 913e f003 873d 71da cbbe
00000130: b783 edbe dfca 94be cc5c 0dbf 7d51 243f
00000140: a0db e13b 611b 99be 4a31 a2bc 4183 9cbe
00000150: e944 843d 92e8 e9be b4cb 7f3f fc80 1d3e
00000160: c14d b2be 6a32 aebd da94 4b3c 2acf acbe
00000170: ab08 0cbf 742e 9dbe 75c0 9ebe 749b cdbd
00000180: aa6e f5be 50cd b5be 41ac c23e c706 c6be
00000190: 2c99 f7be a115 09bf 0cac 0c3f fd70 d5be
000001a0: 6a5e cbbe abef 3dbe d222 ecbe 9457 c6be
000001b0: ed61 8c3e e177 d0be a882 81bd 22cd 903f
000001c0: 573d c1be a742 cebe c0ab 723f 9298 0bbf
000001d0: 3527 f23d b2fc 8bbe 276d 1dbd 71b7 e0be
000001e0: e068 a13e e1fa 0540 c0fb 5bbe 503e 96be
000001f0: ffc4 a53d 6c6e 65be d61e bfbe 5b30 94be
00000200: 15f7 71be dc0e 753f c316 b3be 60ae ac3f
00000210: eee5 2cbd be54 a6be f372 5abf 6a86 a0be
00000220: 1025 a7be e957 f6be aafb 2f3a 6059 57be
00000230: 6a5c abbe d70d 7bbe e0c7 8ebe 65b7 003f
00000240: 2834 9dbd 8abc efbe 6636 7cbc eb6a a1be
00000250: daab b73c 5d65 90be a4af a2be f20a c4be
00000260: 2acb 80be 8466 053d 94f4 23bd 2b9c 02bf
00000270: 131e a6be bc6b 59be 902a 8bbe c3d9 2e3d
00000280: 29d8 23be 2bf6 8cbe 0c9a 053f acd7 a1be
00000290: 97e8 54be 0ece 97be 2380 59bf 6162 9dbe
000002a0: 6aa8 c0bc 6517 28bf a4fe a9be 90d7 a1be
000002b0: 43bf 2dbf 873d 9dbe 76fc 823d bb22 943f
000002c0: 92e9 1fbe aea5 b9be 7a00 9d3f 8e62 1dbf
000002d0: 5582 b8be 6077 c9be 3578 50bd a361 78be
000002e0: 2c91 c7bc d551 1a40 d75f ddbe 38be b1be
000002f0: ed47 343d f7db 92be 728d 03be 7d18 debe
00000300: 3d38 a2be f792 3c3f 7b8e 513f 546e 013f
00000310: 8076 5a3d e0b8 e5be a3ce 7abc 76cd 7fbe
00000320: 5c64 99be b0a8 8a3e e5fd 233d e635 05bf
00000330: 3f2b 93be 6581 3ebe 7a99 9ebd 0047 9b3f
00000340: 78f8 e13d 1b2d a1be 9618 c33c 0b9a c6be
00000350: 9d87 27be 4d8e acbe b7c3 353f 2524 f5be
00000360: 7980 aebe cd9a 9dbb ef39 a83d 2f17 fcbe
00000370: d4c1 1bbe cd05 e4be f4ef b8be addb af3d
00000380: 30a5 a9be c452 abbe f8a8 bcbd 9e55 cbbe
00000390: 3a28 91be aaa6 abbe ec74 75be f22d 8cbe
000003a0: 17fb 16bf 728d 36bf 6c2b d4be 4725 91be
000003b0: b74d 363e 8340 48be 27e5 7a3c 5373 953f
000003c0: 0ca4 86be aac9 92be f318 903f 60a2 143d
000003d0: 230a 473f 93e1 a9be 8239 a43d 709f 91be
000003e0: 5a51 45be 03a4 1340 899b c6be 5bfe 77be
000003f0: 18a7 ccbc 16e9 36be 9565 f0be 75c5 debe
-0.29914618 0.3808856 0.42874244 0.8408 -0.03791168 -0.31252626 0.32310098 -0.28225023
-0.3644981 -0.7083835 0.10500244 -0.1800778 -0.3764649 -0.4950531 -0.7105969 0.7684226
0.05987873 -0.17464851 0.016723823 -0.22299029 0.018712053 -0.35410064 0.96482086 -0.36752322
-0.51292235 0.054761127 -0.028722666 -0.24043007 -0.12824537 -0.35776475 -0.3086704 0.059045117
-0.7185792 -0.25700358 0.3331383 -0.34723055 -0.6193375 -0.28981 -0.13436408 -0.2845421
-0.7086429 -0.2944602 -0.31235796 -0.2822142 0.076234736 -0.37710422 -0.10361835 0.91443163
-0.22364984 -0.32713795 1.0977426 0.006621493 0.5330616 -0.23119557 0.07955787 -0.4164107
-1.5960323 2.1634305 -0.25463095 -0.2659314 0.059952445 -0.48670807 -0.6182841 -0.38360772
-0.2960749 0.3909692 0.40787673 0.80726755 0.04654468 -0.2176036 0.06182707 -0.3189006
-0.29749483 0.28447005 0.06592548 -0.39815095 -0.46389553 -0.29061028 -0.5521972 0.6418684
0.0068926364 -0.299037 -0.019798893 -0.3056889 0.06458456 -0.4568525 0.999202 0.15381235
-0.34824947 -0.085057095 0.012425626 -0.33751804 -0.54700726 -0.30699503 -0.31006208 -0.10039416
-0.47935992 -0.35508204 0.38022044 -0.38677046 -0.48359048 -0.5354863 0.5495002 -0.41687766
-0.3972047 -0.18548457 -0.46120316 -0.38738692 0.2741846 -0.4071646 -0.06323749 1.1312602
-0.3774211 -0.40285227 0.9479332 -0.5452968 0.118238844 -0.2734123 -0.038434174 -0.43889955
0.31525326 2.0934374 -0.21482754 -0.29344416 0.08094215 -0.22405404 -0.37328213 -0.28943142
-0.2362941 0.957258 -0.34978303 1.3490715 -0.042211466 -0.32486528 -0.8533165 -0.3135255
-0.32645464 -0.48113945 0.0006713221 -0.21030188 -0.33468944 -0.24516998 -0.27886868 0.5027984
-0.07675964 -0.4682353 -0.015393829 -0.31526884 0.022420812 -0.28202334 -0.31774628 -0.382896
-0.25155002 0.03256847 -0.04002817 -0.51019543 -0.3244482 -0.21232504 -0.2718091 0.042688143
-0.16000427 -0.2753156 0.5218818 -0.31609857 -0.20791851 -0.29649395 -0.84961146 -0.3073912
-0.023517806 -0.656607 -0.33202088 -0.31609774 -0.6786997 -0.30711004 0.06395809 1.1573099
-0.15616444 -0.36259216 1.226577 -0.6147851 -0.36036935 -0.39348888 -0.05089589 -0.24255995
-0.024361216 2.4112446 -0.43237182 -0.34715438 0.044013906 -0.28683445 -0.12846926 -0.43378058
-0.3168353 0.7366175 0.8185803 0.5055897 0.053335667 -0.4486761 -0.015308055 -0.24980721
-0.2995938 0.27081823 0.040037055 -0.5203537 -0.28743932 -0.18604048 -0.07744117 1.2131042
0.1103372 -0.31479725 0.023815434 -0.387894 -0.16360326 -0.33702317 0.7100176 -0.4787914
-0.34082392 -0.0048097135 0.08214175 -0.49236438 -0.15210658 -0.44535676 -0.3612057 0.08586822
-0.3313384 -0.33461583 -0.09211916 -0.39713758 -0.28351003 -0.33525592 -0.23970383 -0.27378803
-0.5897688 -0.7130958 -0.41439378 -0.28348753 0.17803083 -0.1955586 0.015313423 1.1675819
-0.26297033 -0.28669482 1.1257614 0.036287665 0.7774984 -0.33179912 0.08018781 -0.28441954
-0.19269314 2.3068855 -0.3879054 -0.24218123 -0.02498202 -0.17862353 -0.469525 -0.43510023

out.bias f4 [4]
00000000: 9b0c a43e 8f6f 833e db63 463e c756 863d
0.32040867 0.2567105 0.1937403 0.0655952
